…
I0111 18:29:31.176447 12987 net.cpp:322] The NetState phase (0) differed from the phase (1) specified by a rule in layer resnet_32
I0111 18:29:31.177498 12987 net.cpp:58] Initializing net from parameters: 
name: "ResNet-32"
state {
  phase: TRAIN
  level: 0
  stage: ""
}
layer {
  name: "resnet_32"
  type: "Data"
  top: "data"
  top: "label"
  include {
    phase: TRAIN
  }
  transform_param {
    mirror: true
    crop_size: 224
    mean_value: 104
    mean_value: 117
    mean_value: 123
  }
  data_param {
    source: "/home/heyihui/heyihui-local/caffe/examples/imagenet/ilsvrc12_train_lmdb"
    batch_size: 32
    backend: LMDB
  }
}
layer {
  name: "conv1"
  type: "Convolution"
  bottom: "data"
  top: "conv1"
  convolution_param {
    num_output: 64
    pad: 3
    kernel_size: 7
    stride: 2
    weight_filler {
      type: "msra"
    }
    bias_filler {
      type: "constant"
      value: 0
    }
  }
}
layer {
  name: "bn_conv1"
  type: "BatchNorm"
  bottom: "conv1"
  top: "conv1"
  batch_norm_param {
  }
}
layer {
  name: "scale_conv1"
  type: "Scale"
  bottom: "conv1"
  top: "conv1"
  scale_param {
    bias_term: true
  }
}
layer {
  name: "conv1_relu"
  type: "ReLU"
  bottom: "conv1"
  top: "conv1"
}
layer {
  name: "pool1"
  type: "Pooling"
  bottom: "conv1"
  top: "pool1"
  pooling_param {
    pool: MAX
    kernel_size: 3
    stride: 2
  }
}
layer {
  name: "res2a_branch1"
  type: "Convolution"
  bottom: "pool1"
  top: "res2a_branch1"
  convolution_param {
    num_output: 256
    bias_term: false
    pad: 0
    kernel_size: 1
    stride: 1
    weight_filler {
      type: "msra"
    }
  }
}
layer {
  name: "bn2a_branch1"
  type: "BatchNorm"
  bottom: "res2a_branch1"
  top: "res2a_branch1"
  batch_norm_param {
  }
}
layer {
  name: "scale2a_branch1"
  type: "Scale"
  bottom: "res2a_branch1"
  top: "res2a_branch1"
  scale_param {
    bias_term: true
  }
}
layer {
  name: "res2a_branch2a"
  type: "Convolution"
  bottom: "pool1"
  top: "res2a_branch2a"
  convolution_param {
    num_output: 64
    bias_term: false
    pad: 0
    kernel_size: 1
    stride: 1
    weight_filler {
      type: "msra"
    }
  }
}
layer {
  name: "bn2a_branch2a"
  type: "BatchNorm"
  bottom: "res2a_branch2a"
  top: "res2a_branch2a"
  batch_norm_param {
  }
}
layer {
  name: "scale2a_branch2a"
  type: "Scale"
  bottom: "res2a_branch2a"
  top: "res2a_branch2a"
  scale_param {
    bias_term: true
  }
}
layer {
  name: "res2a_branch2a_relu"
  type: "ReLU"
  bottom: "res2a_branch2a"
  top: "res2a_branch2a"
}
layer {
  name: "res2a_branch2b"
  type: "Convolution"
  bottom: "res2a_branch2a"
  top: "res2a_branch2b"
  convolution_param {
    num_output: 64
    bias_term: false
    pad: 1
    kernel_size: 3
    stride: 1
    weight_filler {
      type: "msra"
    }
  }
}
layer {
  name: "bn2a_branch2b"
  type: "BatchNorm"
  bottom: "res2a_branch2b"
  top: "res2a_branch2b"
  batch_norm_param {
  }
}
layer {
  name: "scale2a_branch2b"
  type: "Scale"
  bottom: "res2a_branch2b"
  top: "res2a_branch2b"
  scale_param {
    bias_term: true
  }
}
layer {
  name: "res2a_branch2b_relu"
  type: "ReLU"
  bottom: "res2a_branch2b"
  top: "res2a_branch2b"
}
layer {
  name: "res2a_branch2c"
  type: "Convolution"
  bottom: "res2a_branch2b"
  top: "res2a_branch2c"
  convolution_param {
    num_output: 256
    bias_term: false
    pad: 0
    kernel_size: 1
    stride: 1
    weight_filler {
      type: "msra"
    }
  }
}
layer {
  name: "bn2a_branch2c"
  type: "BatchNorm"
  bottom: "res2a_branch2c"
  top: "res2a_branch2c"
  batch_norm_param {
  }
}
layer {
  name: "scale2a_branch2c"
  type: "Scale"
  bottom: "res2a_branch2c"
  top: "res2a_branch2c"
  scale_param {
    bias_term: true
  }
}
layer {
  name: "res2a"
  type: "Eltwise"
  bottom: "res2a_branch1"
  bottom: "res2a_branch2c"
  top: "res2a"
}
layer {
  name: "res2a_relu"
  type: "ReLU"
  bottom: "res2a"
  top: "res2a"
}
layer {
  name: "res2b_branch2a"
  type: "Convolution"
  bottom: "res2a"
  top: "res2b_branch2a"
  convolution_param {
    num_output: 64
    bias_term: false
    pad: 0
    kernel_size: 1
    stride: 1
    weight_filler {
      type: "msra"
    }
  }
}
layer {
  name: "bn2b_branch2a"
  type: "BatchNorm"
  bottom: "res2b_branch2a"
  top: "res2b_branch2a"
  batch_norm_param {
  }
}
layer {
  name: "scale2b_branch2a"
  type: "Scale"
  bottom: "res2b_branch2a"
  top: "res2b_branch2a"
  scale_param {
    bias_term: true
  }
}
layer {
  name: "res2b_branch2a_relu"
  type: "ReLU"
  bottom: "res2b_branch2a"
  top: "res2b_branch2a"
}
layer {
  name: "res2b_branch2b"
  type: "Convolution"
  bottom: "res2b_branch2a"
  top: "res2b_branch2b"
  convolution_param {
    num_output: 64
    bias_term: false
    pad: 1
    kernel_size: 3
    stride: 1
    weight_filler {
      type: "msra"
    }
  }
}
layer {
  name: "bn2b_branch2b"
  type: "BatchNorm"
  bottom: "res2b_branch2b"
  top: "res2b_branch2b"
  batch_norm_param {
  }
}
layer {
  name: "scale2b_branch2b"
  type: "Scale"
  bottom: "res2b_branch2b"
  top: "res2b_branch2b"
  scale_param {
    bias_term: true
  }
}
layer {
  name: "res2b_branch2b_relu"
  type: "ReLU"
  bottom: "res2b_branch2b"
  top: "res2b_branch2b"
}
layer {
  name: "res2b_branch2c"
  type: "Convolution"
  bottom: "res2b_branch2b"
  top: "res2b_branch2c"
  convolution_param {
    num_output: 256
    bias_term: false
    pad: 0
    kernel_size: 1
    stride: 1
    weight_filler {
      type: "msra"
    }
  }
}
layer {
  name: "bn2b_branch2c"
  type: "BatchNorm"
  bottom: "res2b_branch2c"
  top: "res2b_branch2c"
  batch_norm_param {
  }
}
layer {
  name: "scale2b_branch2c"
  type: "Scale"
  bottom: "res2b_branch2c"
  top: "res2b_branch2c"
  scale_param {
    bias_term: true
  }
}
layer {
  name: "res2b"
  type: "Eltwise"
  bottom: "res2a"
  bottom: "res2b_branch2c"
  top: "res2b"
}
layer {
  name: "res2b_relu"
  type: "ReLU"
  bottom: "res2b"
  top: "res2b"
}
layer {
  name: "res2c_branch2a"
  type: "Convolution"
  bottom: "res2b"
  top: "res2c_branch2a"
  convolution_param {
    num_output: 64
    bias_term: false
    pad: 0
    kernel_size: 1
    stride: 1
    weight_filler {
      type: "msra"
    }
  }
}
layer {
  name: "bn2c_branch2a"
  type: "BatchNorm"
  bottom: "res2c_branch2a"
  top: "res2c_branch2a"
  batch_norm_param {
  }
}
layer {
  name: "scale2c_branch2a"
  type: "Scale"
  bottom: "res2c_branch2a"
  top: "res2c_branch2a"
  scale_param {
    bias_term: true
  }
}
layer {
  name: "res2c_branch2a_relu"
  type: "ReLU"
  bottom: "res2c_branch2a"
  top: "res2c_branch2a"
}
layer {
  name: "res2c_branch2b"
  type: "Convolution"
  bottom: "res2c_branch2a"
  top: "res2c_branch2b"
  convolution_param {
    num_output: 64
    bias_term: false
    pad: 1
    kernel_size: 3
    stride: 1
    weight_filler {
      type: "msra"
    }
  }
}
layer {
  name: "bn2c_branch2b"
  type: "BatchNorm"
  bottom: "res2c_branch2b"
  top: "res2c_branch2b"
  batch_norm_param {
  }
}
layer {
  name: "scale2c_branch2b"
  type: "Scale"
  bottom: "res2c_branch2b"
  top: "res2c_branch2b"
  scale_param {
    bias_term: true
  }
}
layer {
  name: "res2c_branch2b_relu"
  type: "ReLU"
  bottom: "res2c_branch2b"
  top: "res2c_branch2b"
}
layer {
  name: "res2c_branch2c"
  type: "Convolution"
  bottom: "res2c_branch2b"
  top: "res2c_branch2c"
  convolution_param {
    num_output: 256
    bias_term: false
    pad: 0
    kernel_size: 1
    stride: 1
    weight_filler {
      type: "msra"
    }
  }
}
layer {
  name: "bn2c_branch2c"
  type: "BatchNorm"
  bottom: "res2c_branch2c"
  top: "res2c_branch2c"
  batch_norm_param {
  }
}
layer {
  name: "scale2c_branch2c"
  type: "Scale"
  bottom: "res2c_branch2c"
  top: "res2c_branch2c"
  scale_param {
    bias_term: true
  }
}
layer {
  name: "res2c"
  type: "Eltwise"
  bottom: "res2b"
  bottom: "res2c_branch2c"
  top: "res2c"
}
layer {
  name: "res2c_relu"
  type: "ReLU"
  bottom: "res2c"
  top: "res2c"
}
layer {
  name: "res3a_branch1"
  type: "Convolution"
  bottom: "res2c"
  top: "res3a_branch1"
  convolution_param {
    num_output: 512
    bias_term: false
    pad: 0
    kernel_size: 1
    stride: 2
    weight_filler {
      type: "msra"
    }
  }
}
layer {
  name: "bn3a_branch1"
  type: "BatchNorm"
  bottom: "res3a_branch1"
  top: "res3a_branch1"
  batch_norm_param {
  }
}
layer {
  name: "scale3a_branch1"
  type: "Scale"
  bottom: "res3a_branch1"
  top: "res3a_branch1"
  scale_param {
    bias_term: true
  }
}
layer {
  name: "res3a_branch2a"
  type: "Convolution"
  bottom: "res2c"
  top: "res3a_branch2a"
  convolution_param {
    num_output: 128
    bias_term: false
    pad: 0
    kernel_size: 1
    stride: 2
    weight_filler {
      type: "msra"
    }
  }
}
layer {
  name: "bn3a_branch2a"
  type: "BatchNorm"
  bottom: "res3a_branch2a"
  top: "res3a_branch2a"
  batch_norm_param {
  }
}
layer {
  name: "scale3a_branch2a"
  type: "Scale"
  bottom: "res3a_branch2a"
  top: "res3a_branch2a"
  scale_param {
    bias_term: true
  }
}
layer {
  name: "res3a_branch2a_relu"
  type: "ReLU"
  bottom: "res3a_branch2a"
  top: "res3a_branch2a"
}
layer {
  name: "res3a_branch2b"
  type: "Convolution"
  bottom: "res3a_branch2a"
  top: "res3a_branch2b"
  convolution_param {
    num_output: 128
    bias_term: false
    pad: 1
    kernel_size: 3
    stride: 1
    weight_filler {
      type: "msra"
    }
  }
}
layer {
  name: "bn3a_branch2b"
  type: "BatchNorm"
  bottom: "res3a_branch2b"
  top: "res3a_branch2b"
  batch_norm_param {
  }
}
layer {
  name: "scale3a_branch2b"
  type: "Scale"
  bottom: "res3a_branch2b"
  top: "res3a_branch2b"
  scale_param {
    bias_term: true
  }
}
layer {
  name: "res3a_branch2b_relu"
  type: "ReLU"
  bottom: "res3a_branch2b"
  top: "res3a_branch2b"
}
layer {
  name: "res3a_branch2c"
  type: "Convolution"
  bottom: "res3a_branch2b"
  top: "res3a_branch2c"
  convolution_param {
    num_output: 512
    bias_term: false
    pad: 0
    kernel_size: 1
    stride: 1
    weight_filler {
      type: "msra"
    }
  }
}
layer {
  name: "bn3a_branch2c"
  type: "BatchNorm"
  bottom: "res3a_branch2c"
  top: "res3a_branch2c"
  batch_norm_param {
  }
}
layer {
  name: "scale3a_branch2c"
  type: "Scale"
  bottom: "res3a_branch2c"
  top: "res3a_branch2c"
  scale_param {
    bias_term: true
  }
}
layer {
  name: "res3a"
  type: "Eltwise"
  bottom: "res3a_branch1"
  bottom: "res3a_branch2c"
  top: "res3a"
}
layer {
  name: "res3a_relu"
  type: "ReLU"
  bottom: "res3a"
  top: "res3a"
}
layer {
  name: "res3b_branch2a"
  type: "Convolution"
  bottom: "res3a"
  top: "res3b_branch2a"
  convolution_param {
    num_output: 128
    bias_term: false
    pad: 0
    kernel_size: 1
    stride: 1
    weight_filler {
      type: "msra"
    }
  }
}
layer {
  name: "bn3b_branch2a"
  type: "BatchNorm"
  bottom: "res3b_branch2a"
  top: "res3b_branch2a"
  batch_norm_param {
  }
}
layer {
  name: "scale3b_branch2a"
  type: "Scale"
  bottom: "res3b_branch2a"
  top: "res3b_branch2a"
  scale_param {
    bias_term: true
  }
}
layer {
  name: "res3b_branch2a_relu"
  type: "ReLU"
  bottom: "res3b_branch2a"
  top: "res3b_branch2a"
}
layer {
  name: "res3b_branch2b"
  type: "Convolution"
  bottom: "res3b_branch2a"
  top: "res3b_branch2b"
  convolution_param {
    num_output: 128
    bias_term: false
    pad: 1
    kernel_size: 3
    stride: 1
    weight_filler {
      type: "msra"
    }
  }
}
layer {
  name: "bn3b_branch2b"
  type: "BatchNorm"
  bottom: "res3b_branch2b"
  top: "res3b_branch2b"
  batch_norm_param {
  }
}
layer {
  name: "scale3b_branch2b"
  type: "Scale"
  bottom: "res3b_branch2b"
  top: "res3b_branch2b"
  scale_param {
    bias_term: true
  }
}
layer {
  name: "res3b_branch2b_relu"
  type: "ReLU"
  bottom: "res3b_branch2b"
  top: "res3b_branch2b"
}
layer {
  name: "res3b_branch2c"
  type: "Convolution"
  bottom: "res3b_branch2b"
  top: "res3b_branch2c"
  convolution_param {
    num_output: 512
    bias_term: false
    pad: 0
    kernel_size: 1
    stride: 1
    weight_filler {
      type: "msra"
    }
  }
}
layer {
  name: "bn3b_branch2c"
  type: "BatchNorm"
  bottom: "res3b_branch2c"
  top: "res3b_branch2c"
  batch_norm_param {
  }
}
layer {
  name: "scale3b_branch2c"
  type: "Scale"
  bottom: "res3b_branch2c"
  top: "res3b_branch2c"
  scale_param {
    bias_term: true
  }
}
layer {
  name: "res3b"
  type: "Eltwise"
  bottom: "res3a"
  bottom: "res3b_branch2c"
  top: "res3b"
}
layer {
  name: "res3b_relu"
  type: "ReLU"
  bottom: "res3b"
  top: "res3b"
}
layer {
  name: "res3c_branch2a"
  type: "Convolution"
  bottom: "res3b"
  top: "res3c_branch2a"
  convolution_param {
    num_output: 128
    bias_term: false
    pad: 0
    kernel_size: 1
    stride: 1
    weight_filler {
      type: "msra"
    }
  }
}
layer {
  name: "bn3c_branch2a"
  type: "BatchNorm"
  bottom: "res3c_branch2a"
  top: "res3c_branch2a"
  batch_norm_param {
  }
}
layer {
  name: "scale3c_branch2a"
  type: "Scale"
  bottom: "res3c_branch2a"
  top: "res3c_branch2a"
  scale_param {
    bias_term: true
  }
}
layer {
  name: "res3c_branch2a_relu"
  type: "ReLU"
  bottom: "res3c_branch2a"
  top: "res3c_branch2a"
}
layer {
  name: "res3c_branch2b"
  type: "Convolution"
  bottom: "res3c_branch2a"
  top: "res3c_branch2b"
  convolution_param {
    num_output: 128
    bias_term: false
    pad: 1
    kernel_size: 3
    stride: 1
    weight_filler {
      type: "msra"
    }
  }
}
layer {
  name: "bn3c_branch2b"
  type: "BatchNorm"
  bottom: "res3c_branch2b"
  top: "res3c_branch2b"
  batch_norm_param {
  }
}
layer {
  name: "scale3c_branch2b"
  type: "Scale"
  bottom: "res3c_branch2b"
  top: "res3c_branch2b"
  scale_param {
    bias_term: true
  }
}
layer {
  name: "res3c_branch2b_relu"
  type: "ReLU"
  bottom: "res3c_branch2b"
  top: "res3c_branch2b"
}
layer {
  name: "res3c_branch2c"
  type: "Convolution"
  bottom: "res3c_branch2b"
  top: "res3c_branch2c"
  convolution_param {
    num_output: 512
    bias_term: false
    pad: 0
    kernel_size: 1
    stride: 1
    weight_filler {
      type: "msra"
    }
  }
}
layer {
  name: "bn3c_branch2c"
  type: "BatchNorm"
  bottom: "res3c_branch2c"
  top: "res3c_branch2c"
  batch_norm_param {
  }
}
layer {
  name: "scale3c_branch2c"
  type: "Scale"
  bottom: "res3c_branch2c"
  top: "res3c_branch2c"
  scale_param {
    bias_term: true
  }
}
layer {
  name: "res3c"
  type: "Eltwise"
  bottom: "res3b"
  bottom: "res3c_branch2c"
  top: "res3c"
}
layer {
  name: "res3c_relu"
  type: "ReLU"
  bottom: "res3c"
  top: "res3c"
}
layer {
  name: "res3d_branch2a"
  type: "Convolution"
  bottom: "res3c"
  top: "res3d_branch2a"
  convolution_param {
    num_output: 128
    bias_term: false
    pad: 0
    kernel_size: 1
    stride: 1
    weight_filler {
      type: "msra"
    }
  }
}
layer {
  name: "bn3d_branch2a"
  type: "BatchNorm"
  bottom: "res3d_branch2a"
  top: "res3d_branch2a"
  batch_norm_param {
  }
}
layer {
  name: "scale3d_branch2a"
  type: "Scale"
  bottom: "res3d_branch2a"
  top: "res3d_branch2a"
  scale_param {
    bias_term: true
  }
}
layer {
  name: "res3d_branch2a_relu"
  type: "ReLU"
  bottom: "res3d_branch2a"
  top: "res3d_branch2a"
}
layer {
  name: "res3d_branch2b"
  type: "Convolution"
  bottom: "res3d_branch2a"
  top: "res3d_branch2b"
  convolution_param {
    num_output: 128
    bias_term: false
    pad: 1
    kernel_size: 3
    stride: 1
    weight_filler {
      type: "msra"
    }
  }
}
layer {
  name: "bn3d_branch2b"
  type: "BatchNorm"
  bottom: "res3d_branch2b"
  top: "res3d_branch2b"
  batch_norm_param {
  }
}
layer {
  name: "scale3d_branch2b"
  type: "Scale"
  bottom: "res3d_branch2b"
  top: "res3d_branch2b"
  scale_param {
    bias_term: true
  }
}
layer {
  name: "res3d_branch2b_relu"
  type: "ReLU"
  bottom: "res3d_branch2b"
  top: "res3d_branch2b"
}
layer {
  name: "res3d_branch2c"
  type: "Convolution"
  bottom: "res3d_branch2b"
  top: "res3d_branch2c"
  convolution_param {
    num_output: 512
    bias_term: false
    pad: 0
    kernel_size: 1
    stride: 1
    weight_filler {
      type: "msra"
    }
  }
}
layer {
  name: "bn3d_branch2c"
  type: "BatchNorm"
  bottom: "res3d_branch2c"
  top: "res3d_branch2c"
  batch_norm_param {
  }
}
layer {
  name: "scale3d_branch2c"
  type: "Scale"
  bottom: "res3d_branch2c"
  top: "res3d_branch2c"
  scale_param {
    bias_term: true
  }
}
layer {
  name: "res3d"
  type: "Eltwise"
  bottom: "res3c"
  bottom: "res3d_branch2c"
  top: "res3d"
}
layer {
  name: "res3d_relu"
  type: "ReLU"
  bottom: "res3d"
  top: "res3d"
}
layer {
  name: "res4a_branch1"
  type: "Convolution"
  bottom: "res3d"
  top: "res4a_branch1"
  convolution_param {
    num_output: 1024
    bias_term: false
    pad: 0
    kernel_size: 1
    stride: 2
    weight_filler {
      type: "msra"
    }
  }
}
layer {
  name: "bn4a_branch1"
  type: "BatchNorm"
  bottom: "res4a_branch1"
  top: "res4a_branch1"
  batch_norm_param {
  }
}
layer {
  name: "scale4a_branch1"
  type: "Scale"
  bottom: "res4a_branch1"
  top: "res4a_branch1"
  scale_param {
    bias_term: true
  }
}
layer {
  name: "res4a_branch2a"
  type: "Convolution"
  bottom: "res3d"
  top: "res4a_branch2a"
  convolution_param {
    num_output: 256
    bias_term: false
    pad: 0
    kernel_size: 1
    stride: 2
    weight_filler {
      type: "msra"
    }
  }
}
layer {
  name: "bn4a_branch2a"
  type: "BatchNorm"
  bottom: "res4a_branch2a"
  top: "res4a_branch2a"
  batch_norm_param {
  }
}
layer {
  name: "scale4a_branch2a"
  type: "Scale"
  bottom: "res4a_branch2a"
  top: "res4a_branch2a"
  scale_param {
    bias_term: true
  }
}
layer {
  name: "res4a_branch2a_relu"
  type: "ReLU"
  bottom: "res4a_branch2a"
  top: "res4a_branch2a"
}
layer {
  name: "res4a_branch2b"
  type: "Convolution"
  bottom: "res4a_branch2a"
  top: "res4a_branch2b"
  convolution_param {
    num_output: 256
    bias_term: false
    pad: 1
    kernel_size: 3
    stride: 1
    weight_filler {
      type: "msra"
    }
  }
}
layer {
  name: "bn4a_branch2b"
  type: "BatchNorm"
  bottom: "res4a_branch2b"
  top: "res4a_branch2b"
  batch_norm_param {
  }
}
layer {
  name: "scale4a_branch2b"
  type: "Scale"
  bottom: "res4a_branch2b"
  top: "res4a_branch2b"
  scale_param {
    bias_term: true
  }
}
layer {
  name: "res4a_branch2b_relu"
  type: "ReLU"
  bottom: "res4a_branch2b"
  top: "res4a_branch2b"
}
layer {
  name: "res4a_branch2c"
  type: "Convolution"
  bottom: "res4a_branch2b"
  top: "res4a_branch2c"
  convolution_param {
    num_output: 1024
    bias_term: false
    pad: 0
    kernel_size: 1
    stride: 1
    weight_filler {
      type: "msra"
    }
  }
}
layer {
  name: "bn4a_branch2c"
  type: "BatchNorm"
  bottom: "res4a_branch2c"
  top: "res4a_branch2c"
  batch_norm_param {
  }
}
layer {
  name: "scale4a_branch2c"
  type: "Scale"
  bottom: "res4a_branch2c"
  top: "res4a_branch2c"
  scale_param {
    bias_term: true
  }
}
layer {
  name: "res4a"
  type: "Eltwise"
  bottom: "res4a_branch1"
  bottom: "res4a_branch2c"
  top: "res4a"
}
layer {
  name: "res4a_relu"
  type: "ReLU"
  bottom: "res4a"
  top: "res4a"
}
layer {
  name: "res4b_branch2a"
  type: "Convolution"
  bottom: "res4a"
  top: "res4b_branch2a"
  convolution_param {
    num_output: 256
    bias_term: false
    pad: 0
    kernel_size: 1
    stride: 1
    weight_filler {
      type: "msra"
    }
  }
}
layer {
  name: "bn4b_branch2a"
  type: "BatchNorm"
  bottom: "res4b_branch2a"
  top: "res4b_branch2a"
  batch_norm_param {
  }
}
layer {
  name: "scale4b_branch2a"
  type: "Scale"
  bottom: "res4b_branch2a"
  top: "res4b_branch2a"
  scale_param {
    bias_term: true
  }
}
layer {
  name: "res4b_branch2a_relu"
  type: "ReLU"
  bottom: "res4b_branch2a"
  top: "res4b_branch2a"
}
layer {
  name: "res4b_branch2b"
  type: "Convolution"
  bottom: "res4b_branch2a"
  top: "res4b_branch2b"
  convolution_param {
    num_output: 256
    bias_term: false
    pad: 1
    kernel_size: 3
    stride: 1
    weight_filler {
      type: "msra"
    }
  }
}
layer {
  name: "bn4b_branch2b"
  type: "BatchNorm"
  bottom: "res4b_branch2b"
  top: "res4b_branch2b"
  batch_norm_param {
  }
}
layer {
  name: "scale4b_branch2b"
  type: "Scale"
  bottom: "res4b_branch2b"
  top: "res4b_branch2b"
  scale_param {
    bias_term: true
  }
}
layer {
  name: "res4b_branch2b_relu"
  type: "ReLU"
  bottom: "res4b_branch2b"
  top: "res4b_branch2b"
}
layer {
  name: "res4b_branch2c"
  type: "Convolution"
  bottom: "res4b_branch2b"
  top: "res4b_branch2c"
  convolution_param {
    num_output: 1024
    bias_term: false
    pad: 0
    kernel_size: 1
    stride: 1
    weight_filler {
      type: "msra"
    }
  }
}
layer {
  name: "bn4b_branch2c"
  type: "BatchNorm"
  bottom: "res4b_branch2c"
  top: "res4b_branch2c"
  batch_norm_param {
  }
}
layer {
  name: "scale4b_branch2c"
  type: "Scale"
  bottom: "res4b_branch2c"
  top: "res4b_branch2c"
  scale_param {
    bias_term: true
  }
}
layer {
  name: "res4b"
  type: "Eltwise"
  bottom: "res4a"
  bottom: "res4b_branch2c"
  top: "res4b"
}
layer {
  name: "res4b_relu"
  type: "ReLU"
  bottom: "res4b"
  top: "res4b"
}
layer {
  name: "res4c_branch2a"
  type: "Convolution"
  bottom: "res4b"
  top: "res4c_branch2a"
  convolution_param {
    num_output: 256
    bias_term: false
    pad: 0
    kernel_size: 1
    stride: 1
    weight_filler {
      type: "msra"
    }
  }
}
layer {
  name: "bn4c_branch2a"
  type: "BatchNorm"
  bottom: "res4c_branch2a"
  top: "res4c_branch2a"
  batch_norm_param {
  }
}
layer {
  name: "scale4c_branch2a"
  type: "Scale"
  bottom: "res4c_branch2a"
  top: "res4c_branch2a"
  scale_param {
    bias_term: true
  }
}
layer {
  name: "res4c_branch2a_relu"
  type: "ReLU"
  bottom: "res4c_branch2a"
  top: "res4c_branch2a"
}
layer {
  name: "pool5"
  type: "Pooling"
  bottom: "res4c_branch2a"
  top: "pool5"
  pooling_param {
    pool: AVE
    kernel_size: 7
    stride: 1
  }
}
layer {
  name: "fc1000"
  type: "InnerProduct"
  bottom: "pool5"
  top: "fc1000"
  inner_product_param {
    num_output: 1000
    weight_filler {
      type: "msra"
    }
    bias_filler {
      type: "constant"
      value: 0
    }
  }
}
layer {
  name: "prob"
  type: "SoftmaxWithLoss"
  bottom: "fc1000"
  bottom: "label"
  top: "prob"
  include {
    phase: TRAIN
  }
}
layer {
  name: "accuracy/top1"
  type: "Accuracy"
  bottom: "fc1000"
  bottom: "label"
  top: "accuracy@1"
  accuracy_param {
    top_k: 1
  }
}
layer {
  name: "accuracy/top5"
  type: "Accuracy"
  bottom: "fc1000"
  bottom: "label"
  top: "accuracy@5"
  accuracy_param {
    top_k: 5
  }
}
I0111 18:29:31.178401 12987 layer_factory.hpp:77] Creating layer resnet_32
I0111 18:29:31.179834 12987 net.cpp:100] Creating Layer resnet_32
I0111 18:29:31.179862 12987 net.cpp:408] resnet_32 -> data
I0111 18:29:31.179939 12987 net.cpp:408] resnet_32 -> label
I0111 18:29:31.218631 12996 db_lmdb.cpp:35] Opened lmdb /home/heyihui/heyihui-local/caffe/examples/imagenet/ilsvrc12_train_lmdb
I0111 18:29:31.980911 12987 data_layer.cpp:41] output data size: 32,3,224,224
I0111 18:29:32.033973 12987 net.cpp:150] Setting up resnet_32
I0111 18:29:32.034021 12987 net.cpp:157] Top shape: 32 3 224 224 (4816896)
I0111 18:29:32.034030 12987 net.cpp:157] Top shape: 32 (32)
I0111 18:29:32.034035 12987 net.cpp:165] Memory required for data: 19267712
I0111 18:29:32.034051 12987 layer_factory.hpp:77] Creating layer label_resnet_32_1_split
I0111 18:29:32.034073 12987 net.cpp:100] Creating Layer label_resnet_32_1_split
I0111 18:29:32.034082 12987 net.cpp:434] label_resnet_32_1_split <- label
I0111 18:29:32.034102 12987 net.cpp:408] label_resnet_32_1_split -> label_resnet_32_1_split_0
I0111 18:29:32.034121 12987 net.cpp:408] label_resnet_32_1_split -> label_resnet_32_1_split_1
I0111 18:29:32.034133 12987 net.cpp:408] label_resnet_32_1_split -> label_resnet_32_1_split_2
I0111 18:29:32.034380 12987 net.cpp:150] Setting up label_resnet_32_1_split
I0111 18:29:32.034425 12987 net.cpp:157] Top shape: 32 (32)
I0111 18:29:32.034451 12987 net.cpp:157] Top shape: 32 (32)
I0111 18:29:32.034459 12987 net.cpp:157] Top shape: 32 (32)
I0111 18:29:32.034464 12987 net.cpp:165] Memory required for data: 19268096
I0111 18:29:32.034476 12987 layer_factory.hpp:77] Creating layer conv1
I0111 18:29:32.034534 12987 net.cpp:100] Creating Layer conv1
I0111 18:29:32.034548 12987 net.cpp:434] conv1 <- data
I0111 18:29:32.034567 12987 net.cpp:408] conv1 -> conv1
I0111 18:29:32.039474 12997 blocking_queue.cpp:50] Waiting for data
I0111 18:29:32.389271 12987 net.cpp:150] Setting up conv1
I0111 18:29:32.389350 12987 net.cpp:157] Top shape: 32 64 112 112 (25690112)
I0111 18:29:32.389360 12987 net.cpp:165] Memory required for data: 122028544
I0111 18:29:32.389415 12987 layer_factory.hpp:77] Creating layer bn_conv1
I0111 18:29:32.389448 12987 net.cpp:100] Creating Layer bn_conv1
I0111 18:29:32.389458 12987 net.cpp:434] bn_conv1 <- conv1
I0111 18:29:32.389472 12987 net.cpp:395] bn_conv1 -> conv1 (in-place)
I0111 18:29:32.389852 12987 net.cpp:150] Setting up bn_conv1
I0111 18:29:32.389868 12987 net.cpp:157] Top shape: 32 64 112 112 (25690112)
I0111 18:29:32.389873 12987 net.cpp:165] Memory required for data: 224788992
I0111 18:29:32.389894 12987 layer_factory.hpp:77] Creating layer scale_conv1
I0111 18:29:32.389917 12987 net.cpp:100] Creating Layer scale_conv1
I0111 18:29:32.389928 12987 net.cpp:434] scale_conv1 <- conv1
I0111 18:29:32.389937 12987 net.cpp:395] scale_conv1 -> conv1 (in-place)
I0111 18:29:32.390022 12987 layer_factory.hpp:77] Creating layer scale_conv1
I0111 18:29:32.390269 12987 net.cpp:150] Setting up scale_conv1
I0111 18:29:32.390285 12987 net.cpp:157] Top shape: 32 64 112 112 (25690112)
I0111 18:29:32.390291 12987 net.cpp:165] Memory required for data: 327549440
I0111 18:29:32.390301 12987 layer_factory.hpp:77] Creating layer conv1_relu
I0111 18:29:32.390317 12987 net.cpp:100] Creating Layer conv1_relu
I0111 18:29:32.390323 12987 net.cpp:434] conv1_relu <- conv1
I0111 18:29:32.390333 12987 net.cpp:395] conv1_relu -> conv1 (in-place)
I0111 18:29:32.391904 12987 net.cpp:150] Setting up conv1_relu
I0111 18:29:32.391932 12987 net.cpp:157] Top shape: 32 64 112 112 (25690112)
I0111 18:29:32.391938 12987 net.cpp:165] Memory required for data: 430309888
I0111 18:29:32.391945 12987 layer_factory.hpp:77] Creating layer pool1
I0111 18:29:32.391958 12987 net.cpp:100] Creating Layer pool1
I0111 18:29:32.391965 12987 net.cpp:434] pool1 <- conv1
I0111 18:29:32.391975 12987 net.cpp:408] pool1 -> pool1
I0111 18:29:32.392086 12987 net.cpp:150] Setting up pool1
I0111 18:29:32.392103 12987 net.cpp:157] Top shape: 32 64 56 56 (6422528)
I0111 18:29:32.392114 12987 net.cpp:165] Memory required for data: 456000000
I0111 18:29:32.392122 12987 layer_factory.hpp:77] Creating layer pool1_pool1_0_split
I0111 18:29:32.392137 12987 net.cpp:100] Creating Layer pool1_pool1_0_split
I0111 18:29:32.392143 12987 net.cpp:434] pool1_pool1_0_split <- pool1
I0111 18:29:32.392153 12987 net.cpp:408] pool1_pool1_0_split -> pool1_pool1_0_split_0
I0111 18:29:32.392164 12987 net.cpp:408] pool1_pool1_0_split -> pool1_pool1_0_split_1
I0111 18:29:32.392232 12987 net.cpp:150] Setting up pool1_pool1_0_split
I0111 18:29:32.392246 12987 net.cpp:157] Top shape: 32 64 56 56 (6422528)
I0111 18:29:32.392254 12987 net.cpp:157] Top shape: 32 64 56 56 (6422528)
I0111 18:29:32.392262 12987 net.cpp:165] Memory required for data: 507380224
I0111 18:29:32.392268 12987 layer_factory.hpp:77] Creating layer res2a_branch1
I0111 18:29:32.392289 12987 net.cpp:100] Creating Layer res2a_branch1
I0111 18:29:32.392298 12987 net.cpp:434] res2a_branch1 <- pool1_pool1_0_split_0
I0111 18:29:32.392312 12987 net.cpp:408] res2a_branch1 -> res2a_branch1
I0111 18:29:32.396167 12987 net.cpp:150] Setting up res2a_branch1
I0111 18:29:32.396194 12987 net.cpp:157] Top shape: 32 256 56 56 (25690112)
I0111 18:29:32.396203 12987 net.cpp:165] Memory required for data: 610140672
I0111 18:29:32.396214 12987 layer_factory.hpp:77] Creating layer bn2a_branch1
I0111 18:29:32.396227 12987 net.cpp:100] Creating Layer bn2a_branch1
I0111 18:29:32.396250 12987 net.cpp:434] bn2a_branch1 <- res2a_branch1
I0111 18:29:32.396260 12987 net.cpp:395] bn2a_branch1 -> res2a_branch1 (in-place)
I0111 18:29:32.397647 12987 net.cpp:150] Setting up bn2a_branch1
I0111 18:29:32.397671 12987 net.cpp:157] Top shape: 32 256 56 56 (25690112)
I0111 18:29:32.397680 12987 net.cpp:165] Memory required for data: 712901120
I0111 18:29:32.397703 12987 layer_factory.hpp:77] Creating layer scale2a_branch1
I0111 18:29:32.397718 12987 net.cpp:100] Creating Layer scale2a_branch1
I0111 18:29:32.397727 12987 net.cpp:434] scale2a_branch1 <- res2a_branch1
I0111 18:29:32.397735 12987 net.cpp:395] scale2a_branch1 -> res2a_branch1 (in-place)
I0111 18:29:32.397805 12987 layer_factory.hpp:77] Creating layer scale2a_branch1
I0111 18:29:32.397984 12987 net.cpp:150] Setting up scale2a_branch1
I0111 18:29:32.397997 12987 net.cpp:157] Top shape: 32 256 56 56 (25690112)
I0111 18:29:32.398005 12987 net.cpp:165] Memory required for data: 815661568
I0111 18:29:32.398015 12987 layer_factory.hpp:77] Creating layer res2a_branch2a
I0111 18:29:32.398031 12987 net.cpp:100] Creating Layer res2a_branch2a
I0111 18:29:32.398039 12987 net.cpp:434] res2a_branch2a <- pool1_pool1_0_split_1
I0111 18:29:32.398048 12987 net.cpp:408] res2a_branch2a -> res2a_branch2a
I0111 18:29:32.400405 12987 net.cpp:150] Setting up res2a_branch2a
I0111 18:29:32.400431 12987 net.cpp:157] Top shape: 32 64 56 56 (6422528)
I0111 18:29:32.400440 12987 net.cpp:165] Memory required for data: 841351680
I0111 18:29:32.400449 12987 layer_factory.hpp:77] Creating layer bn2a_branch2a
I0111 18:29:32.400463 12987 net.cpp:100] Creating Layer bn2a_branch2a
I0111 18:29:32.400472 12987 net.cpp:434] bn2a_branch2a <- res2a_branch2a
I0111 18:29:32.400481 12987 net.cpp:395] bn2a_branch2a -> res2a_branch2a (in-place)
I0111 18:29:32.400795 12987 net.cpp:150] Setting up bn2a_branch2a
I0111 18:29:32.400809 12987 net.cpp:157] Top shape: 32 64 56 56 (6422528)
I0111 18:29:32.400816 12987 net.cpp:165] Memory required for data: 867041792
I0111 18:29:32.400833 12987 layer_factory.hpp:77] Creating layer scale2a_branch2a
I0111 18:29:32.400847 12987 net.cpp:100] Creating Layer scale2a_branch2a
I0111 18:29:32.400856 12987 net.cpp:434] scale2a_branch2a <- res2a_branch2a
I0111 18:29:32.400862 12987 net.cpp:395] scale2a_branch2a -> res2a_branch2a (in-place)
I0111 18:29:32.400924 12987 layer_factory.hpp:77] Creating layer scale2a_branch2a
I0111 18:29:32.401113 12987 net.cpp:150] Setting up scale2a_branch2a
I0111 18:29:32.401125 12987 net.cpp:157] Top shape: 32 64 56 56 (6422528)
I0111 18:29:32.401130 12987 net.cpp:165] Memory required for data: 892731904
I0111 18:29:32.401144 12987 layer_factory.hpp:77] Creating layer res2a_branch2a_relu
I0111 18:29:32.401156 12987 net.cpp:100] Creating Layer res2a_branch2a_relu
I0111 18:29:32.401163 12987 net.cpp:434] res2a_branch2a_relu <- res2a_branch2a
I0111 18:29:32.401173 12987 net.cpp:395] res2a_branch2a_relu -> res2a_branch2a (in-place)
I0111 18:29:32.402529 12987 net.cpp:150] Setting up res2a_branch2a_relu
I0111 18:29:32.402554 12987 net.cpp:157] Top shape: 32 64 56 56 (6422528)
I0111 18:29:32.402561 12987 net.cpp:165] Memory required for data: 918422016
I0111 18:29:32.402567 12987 layer_factory.hpp:77] Creating layer res2a_branch2b
I0111 18:29:32.402582 12987 net.cpp:100] Creating Layer res2a_branch2b
I0111 18:29:32.402591 12987 net.cpp:434] res2a_branch2b <- res2a_branch2a
I0111 18:29:32.402601 12987 net.cpp:408] res2a_branch2b -> res2a_branch2b
I0111 18:29:32.407563 12987 net.cpp:150] Setting up res2a_branch2b
I0111 18:29:32.407589 12987 net.cpp:157] Top shape: 32 64 56 56 (6422528)
I0111 18:29:32.407598 12987 net.cpp:165] Memory required for data: 944112128
I0111 18:29:32.407608 12987 layer_factory.hpp:77] Creating layer bn2a_branch2b
I0111 18:29:32.407621 12987 net.cpp:100] Creating Layer bn2a_branch2b
I0111 18:29:32.407630 12987 net.cpp:434] bn2a_branch2b <- res2a_branch2b
I0111 18:29:32.407639 12987 net.cpp:395] bn2a_branch2b -> res2a_branch2b (in-place)
I0111 18:29:32.407949 12987 net.cpp:150] Setting up bn2a_branch2b
I0111 18:29:32.407974 12987 net.cpp:157] Top shape: 32 64 56 56 (6422528)
I0111 18:29:32.407981 12987 net.cpp:165] Memory required for data: 969802240
I0111 18:29:32.407994 12987 layer_factory.hpp:77] Creating layer scale2a_branch2b
I0111 18:29:32.408004 12987 net.cpp:100] Creating Layer scale2a_branch2b
I0111 18:29:32.408012 12987 net.cpp:434] scale2a_branch2b <- res2a_branch2b
I0111 18:29:32.408023 12987 net.cpp:395] scale2a_branch2b -> res2a_branch2b (in-place)
I0111 18:29:32.408088 12987 layer_factory.hpp:77] Creating layer scale2a_branch2b
I0111 18:29:32.408274 12987 net.cpp:150] Setting up scale2a_branch2b
I0111 18:29:32.408288 12987 net.cpp:157] Top shape: 32 64 56 56 (6422528)
I0111 18:29:32.408293 12987 net.cpp:165] Memory required for data: 995492352
I0111 18:29:32.408303 12987 layer_factory.hpp:77] Creating layer res2a_branch2b_relu
I0111 18:29:32.408313 12987 net.cpp:100] Creating Layer res2a_branch2b_relu
I0111 18:29:32.408321 12987 net.cpp:434] res2a_branch2b_relu <- res2a_branch2b
I0111 18:29:32.408329 12987 net.cpp:395] res2a_branch2b_relu -> res2a_branch2b (in-place)
I0111 18:29:32.408615 12987 net.cpp:150] Setting up res2a_branch2b_relu
I0111 18:29:32.408632 12987 net.cpp:157] Top shape: 32 64 56 56 (6422528)
I0111 18:29:32.408638 12987 net.cpp:165] Memory required for data: 1021182464
I0111 18:29:32.408643 12987 layer_factory.hpp:77] Creating layer res2a_branch2c
I0111 18:29:32.408656 12987 net.cpp:100] Creating Layer res2a_branch2c
I0111 18:29:32.408663 12987 net.cpp:434] res2a_branch2c <- res2a_branch2b
I0111 18:29:32.408673 12987 net.cpp:408] res2a_branch2c -> res2a_branch2c
I0111 18:29:32.412084 12987 net.cpp:150] Setting up res2a_branch2c
I0111 18:29:32.412109 12987 net.cpp:157] Top shape: 32 256 56 56 (25690112)
I0111 18:29:32.412122 12987 net.cpp:165] Memory required for data: 1123942912
I0111 18:29:32.412130 12987 layer_factory.hpp:77] Creating layer bn2a_branch2c
I0111 18:29:32.412143 12987 net.cpp:100] Creating Layer bn2a_branch2c
I0111 18:29:32.412152 12987 net.cpp:434] bn2a_branch2c <- res2a_branch2c
I0111 18:29:32.412159 12987 net.cpp:395] bn2a_branch2c -> res2a_branch2c (in-place)
I0111 18:29:32.412456 12987 net.cpp:150] Setting up bn2a_branch2c
I0111 18:29:32.412469 12987 net.cpp:157] Top shape: 32 256 56 56 (25690112)
I0111 18:29:32.412477 12987 net.cpp:165] Memory required for data: 1226703360
I0111 18:29:32.412488 12987 layer_factory.hpp:77] Creating layer scale2a_branch2c
I0111 18:29:32.412500 12987 net.cpp:100] Creating Layer scale2a_branch2c
I0111 18:29:32.412508 12987 net.cpp:434] scale2a_branch2c <- res2a_branch2c
I0111 18:29:32.412514 12987 net.cpp:395] scale2a_branch2c -> res2a_branch2c (in-place)
I0111 18:29:32.412575 12987 layer_factory.hpp:77] Creating layer scale2a_branch2c
I0111 18:29:32.412747 12987 net.cpp:150] Setting up scale2a_branch2c
I0111 18:29:32.412760 12987 net.cpp:157] Top shape: 32 256 56 56 (25690112)
I0111 18:29:32.412765 12987 net.cpp:165] Memory required for data: 1329463808
I0111 18:29:32.412776 12987 layer_factory.hpp:77] Creating layer res2a
I0111 18:29:32.412793 12987 net.cpp:100] Creating Layer res2a
I0111 18:29:32.412801 12987 net.cpp:434] res2a <- res2a_branch1
I0111 18:29:32.412808 12987 net.cpp:434] res2a <- res2a_branch2c
I0111 18:29:32.412816 12987 net.cpp:408] res2a -> res2a
I0111 18:29:32.412865 12987 net.cpp:150] Setting up res2a
I0111 18:29:32.412878 12987 net.cpp:157] Top shape: 32 256 56 56 (25690112)
I0111 18:29:32.412885 12987 net.cpp:165] Memory required for data: 1432224256
I0111 18:29:32.412890 12987 layer_factory.hpp:77] Creating layer res2a_relu
I0111 18:29:32.412899 12987 net.cpp:100] Creating Layer res2a_relu
I0111 18:29:32.412904 12987 net.cpp:434] res2a_relu <- res2a
I0111 18:29:32.412910 12987 net.cpp:395] res2a_relu -> res2a (in-place)
I0111 18:29:32.414528 12987 net.cpp:150] Setting up res2a_relu
I0111 18:29:32.414582 12987 net.cpp:157] Top shape: 32 256 56 56 (25690112)
I0111 18:29:32.414593 12987 net.cpp:165] Memory required for data: 1534984704
I0111 18:29:32.414604 12987 layer_factory.hpp:77] Creating layer res2a_res2a_relu_0_split
I0111 18:29:32.414650 12987 net.cpp:100] Creating Layer res2a_res2a_relu_0_split
I0111 18:29:32.414664 12987 net.cpp:434] res2a_res2a_relu_0_split <- res2a
I0111 18:29:32.414702 12987 net.cpp:408] res2a_res2a_relu_0_split -> res2a_res2a_relu_0_split_0
I0111 18:29:32.414726 12987 net.cpp:408] res2a_res2a_relu_0_split -> res2a_res2a_relu_0_split_1
I0111 18:29:32.414847 12987 net.cpp:150] Setting up res2a_res2a_relu_0_split
I0111 18:29:32.414865 12987 net.cpp:157] Top shape: 32 256 56 56 (25690112)
I0111 18:29:32.414875 12987 net.cpp:157] Top shape: 32 256 56 56 (25690112)
I0111 18:29:32.414881 12987 net.cpp:165] Memory required for data: 1740505600
I0111 18:29:32.414888 12987 layer_factory.hpp:77] Creating layer res2b_branch2a
I0111 18:29:32.414913 12987 net.cpp:100] Creating Layer res2b_branch2a
I0111 18:29:32.414923 12987 net.cpp:434] res2b_branch2a <- res2a_res2a_relu_0_split_0
I0111 18:29:32.414935 12987 net.cpp:408] res2b_branch2a -> res2b_branch2a
I0111 18:29:32.419421 12987 net.cpp:150] Setting up res2b_branch2a
I0111 18:29:32.419455 12987 net.cpp:157] Top shape: 32 64 56 56 (6422528)
I0111 18:29:32.419466 12987 net.cpp:165] Memory required for data: 1766195712
I0111 18:29:32.419493 12987 layer_factory.hpp:77] Creating layer bn2b_branch2a
I0111 18:29:32.419512 12987 net.cpp:100] Creating Layer bn2b_branch2a
I0111 18:29:32.419523 12987 net.cpp:434] bn2b_branch2a <- res2b_branch2a
I0111 18:29:32.419535 12987 net.cpp:395] bn2b_branch2a -> res2b_branch2a (in-place)
I0111 18:29:32.419950 12987 net.cpp:150] Setting up bn2b_branch2a
I0111 18:29:32.419967 12987 net.cpp:157] Top shape: 32 64 56 56 (6422528)
I0111 18:29:32.419978 12987 net.cpp:165] Memory required for data: 1791885824
I0111 18:29:32.420006 12987 layer_factory.hpp:77] Creating layer scale2b_branch2a
I0111 18:29:32.420023 12987 net.cpp:100] Creating Layer scale2b_branch2a
I0111 18:29:32.420033 12987 net.cpp:434] scale2b_branch2a <- res2b_branch2a
I0111 18:29:32.420044 12987 net.cpp:395] scale2b_branch2a -> res2b_branch2a (in-place)
I0111 18:29:32.420136 12987 layer_factory.hpp:77] Creating layer scale2b_branch2a
I0111 18:29:32.420389 12987 net.cpp:150] Setting up scale2b_branch2a
I0111 18:29:32.420404 12987 net.cpp:157] Top shape: 32 64 56 56 (6422528)
I0111 18:29:32.420413 12987 net.cpp:165] Memory required for data: 1817575936
I0111 18:29:32.420426 12987 layer_factory.hpp:77] Creating layer res2b_branch2a_relu
I0111 18:29:32.420439 12987 net.cpp:100] Creating Layer res2b_branch2a_relu
I0111 18:29:32.420449 12987 net.cpp:434] res2b_branch2a_relu <- res2b_branch2a
I0111 18:29:32.420464 12987 net.cpp:395] res2b_branch2a_relu -> res2b_branch2a (in-place)
I0111 18:29:32.422087 12987 net.cpp:150] Setting up res2b_branch2a_relu
I0111 18:29:32.422116 12987 net.cpp:157] Top shape: 32 64 56 56 (6422528)
I0111 18:29:32.422124 12987 net.cpp:165] Memory required for data: 1843266048
I0111 18:29:32.422132 12987 layer_factory.hpp:77] Creating layer res2b_branch2b
I0111 18:29:32.422152 12987 net.cpp:100] Creating Layer res2b_branch2b
I0111 18:29:32.422163 12987 net.cpp:434] res2b_branch2b <- res2b_branch2a
I0111 18:29:32.422178 12987 net.cpp:408] res2b_branch2b -> res2b_branch2b
I0111 18:29:32.427004 12987 net.cpp:150] Setting up res2b_branch2b
I0111 18:29:32.427036 12987 net.cpp:157] Top shape: 32 64 56 56 (6422528)
I0111 18:29:32.427044 12987 net.cpp:165] Memory required for data: 1868956160
I0111 18:29:32.427065 12987 layer_factory.hpp:77] Creating layer bn2b_branch2b
I0111 18:29:32.427081 12987 net.cpp:100] Creating Layer bn2b_branch2b
I0111 18:29:32.427090 12987 net.cpp:434] bn2b_branch2b <- res2b_branch2b
I0111 18:29:32.427103 12987 net.cpp:395] bn2b_branch2b -> res2b_branch2b (in-place)
I0111 18:29:32.427498 12987 net.cpp:150] Setting up bn2b_branch2b
I0111 18:29:32.427513 12987 net.cpp:157] Top shape: 32 64 56 56 (6422528)
I0111 18:29:32.427520 12987 net.cpp:165] Memory required for data: 1894646272
I0111 18:29:32.427536 12987 layer_factory.hpp:77] Creating layer scale2b_branch2b
I0111 18:29:32.427548 12987 net.cpp:100] Creating Layer scale2b_branch2b
I0111 18:29:32.427567 12987 net.cpp:434] scale2b_branch2b <- res2b_branch2b
I0111 18:29:32.427577 12987 net.cpp:395] scale2b_branch2b -> res2b_branch2b (in-place)
I0111 18:29:32.427656 12987 layer_factory.hpp:77] Creating layer scale2b_branch2b
I0111 18:29:32.427914 12987 net.cpp:150] Setting up scale2b_branch2b
I0111 18:29:32.427930 12987 net.cpp:157] Top shape: 32 64 56 56 (6422528)
I0111 18:29:32.427937 12987 net.cpp:165] Memory required for data: 1920336384
I0111 18:29:32.427948 12987 layer_factory.hpp:77] Creating layer res2b_branch2b_relu
I0111 18:29:32.427974 12987 net.cpp:100] Creating Layer res2b_branch2b_relu
I0111 18:29:32.427983 12987 net.cpp:434] res2b_branch2b_relu <- res2b_branch2b
I0111 18:29:32.427992 12987 net.cpp:395] res2b_branch2b_relu -> res2b_branch2b (in-place)
I0111 18:29:32.428356 12987 net.cpp:150] Setting up res2b_branch2b_relu
I0111 18:29:32.428375 12987 net.cpp:157] Top shape: 32 64 56 56 (6422528)
I0111 18:29:32.428382 12987 net.cpp:165] Memory required for data: 1946026496
I0111 18:29:32.428390 12987 layer_factory.hpp:77] Creating layer res2b_branch2c
I0111 18:29:32.428406 12987 net.cpp:100] Creating Layer res2b_branch2c
I0111 18:29:32.428414 12987 net.cpp:434] res2b_branch2c <- res2b_branch2b
I0111 18:29:32.428426 12987 net.cpp:408] res2b_branch2c -> res2b_branch2c
I0111 18:29:32.432488 12987 net.cpp:150] Setting up res2b_branch2c
I0111 18:29:32.432515 12987 net.cpp:157] Top shape: 32 256 56 56 (25690112)
I0111 18:29:32.432524 12987 net.cpp:165] Memory required for data: 2048786944
I0111 18:29:32.432545 12987 layer_factory.hpp:77] Creating layer bn2b_branch2c
I0111 18:29:32.432562 12987 net.cpp:100] Creating Layer bn2b_branch2c
I0111 18:29:32.432571 12987 net.cpp:434] bn2b_branch2c <- res2b_branch2c
I0111 18:29:32.432581 12987 net.cpp:395] bn2b_branch2c -> res2b_branch2c (in-place)
I0111 18:29:32.432973 12987 net.cpp:150] Setting up bn2b_branch2c
I0111 18:29:32.432988 12987 net.cpp:157] Top shape: 32 256 56 56 (25690112)
I0111 18:29:32.432996 12987 net.cpp:165] Memory required for data: 2151547392
I0111 18:29:32.433010 12987 layer_factory.hpp:77] Creating layer scale2b_branch2c
I0111 18:29:32.433022 12987 net.cpp:100] Creating Layer scale2b_branch2c
I0111 18:29:32.433029 12987 net.cpp:434] scale2b_branch2c <- res2b_branch2c
I0111 18:29:32.433043 12987 net.cpp:395] scale2b_branch2c -> res2b_branch2c (in-place)
I0111 18:29:32.433116 12987 layer_factory.hpp:77] Creating layer scale2b_branch2c
I0111 18:29:32.433342 12987 net.cpp:150] Setting up scale2b_branch2c
I0111 18:29:32.433358 12987 net.cpp:157] Top shape: 32 256 56 56 (25690112)
I0111 18:29:32.433367 12987 net.cpp:165] Memory required for data: 2254307840
I0111 18:29:32.433377 12987 layer_factory.hpp:77] Creating layer res2b
I0111 18:29:32.433388 12987 net.cpp:100] Creating Layer res2b
I0111 18:29:32.433395 12987 net.cpp:434] res2b <- res2a_res2a_relu_0_split_1
I0111 18:29:32.433405 12987 net.cpp:434] res2b <- res2b_branch2c
I0111 18:29:32.433414 12987 net.cpp:408] res2b -> res2b
I0111 18:29:32.433465 12987 net.cpp:150] Setting up res2b
I0111 18:29:32.433478 12987 net.cpp:157] Top shape: 32 256 56 56 (25690112)
I0111 18:29:32.433483 12987 net.cpp:165] Memory required for data: 2357068288
I0111 18:29:32.433490 12987 layer_factory.hpp:77] Creating layer res2b_relu
I0111 18:29:32.433501 12987 net.cpp:100] Creating Layer res2b_relu
I0111 18:29:32.433509 12987 net.cpp:434] res2b_relu <- res2b
I0111 18:29:32.433524 12987 net.cpp:395] res2b_relu -> res2b (in-place)
I0111 18:29:32.435026 12987 net.cpp:150] Setting up res2b_relu
I0111 18:29:32.435050 12987 net.cpp:157] Top shape: 32 256 56 56 (25690112)
I0111 18:29:32.435060 12987 net.cpp:165] Memory required for data: 2459828736
I0111 18:29:32.435076 12987 layer_factory.hpp:77] Creating layer res2b_res2b_relu_0_split
I0111 18:29:32.435093 12987 net.cpp:100] Creating Layer res2b_res2b_relu_0_split
I0111 18:29:32.435102 12987 net.cpp:434] res2b_res2b_relu_0_split <- res2b
I0111 18:29:32.435113 12987 net.cpp:408] res2b_res2b_relu_0_split -> res2b_res2b_relu_0_split_0
I0111 18:29:32.435140 12987 net.cpp:408] res2b_res2b_relu_0_split -> res2b_res2b_relu_0_split_1
I0111 18:29:32.435240 12987 net.cpp:150] Setting up res2b_res2b_relu_0_split
I0111 18:29:32.435257 12987 net.cpp:157] Top shape: 32 256 56 56 (25690112)
I0111 18:29:32.435267 12987 net.cpp:157] Top shape: 32 256 56 56 (25690112)
I0111 18:29:32.435272 12987 net.cpp:165] Memory required for data: 2665349632
I0111 18:29:32.435278 12987 layer_factory.hpp:77] Creating layer res2c_branch2a
I0111 18:29:32.435295 12987 net.cpp:100] Creating Layer res2c_branch2a
I0111 18:29:32.435307 12987 net.cpp:434] res2c_branch2a <- res2b_res2b_relu_0_split_0
I0111 18:29:32.435319 12987 net.cpp:408] res2c_branch2a -> res2c_branch2a
I0111 18:29:32.438247 12987 net.cpp:150] Setting up res2c_branch2a
I0111 18:29:32.438277 12987 net.cpp:157] Top shape: 32 64 56 56 (6422528)
I0111 18:29:32.438285 12987 net.cpp:165] Memory required for data: 2691039744
I0111 18:29:32.438297 12987 layer_factory.hpp:77] Creating layer bn2c_branch2a
I0111 18:29:32.438310 12987 net.cpp:100] Creating Layer bn2c_branch2a
I0111 18:29:32.438318 12987 net.cpp:434] bn2c_branch2a <- res2c_branch2a
I0111 18:29:32.438328 12987 net.cpp:395] bn2c_branch2a -> res2c_branch2a (in-place)
I0111 18:29:32.438730 12987 net.cpp:150] Setting up bn2c_branch2a
I0111 18:29:32.438743 12987 net.cpp:157] Top shape: 32 64 56 56 (6422528)
I0111 18:29:32.438750 12987 net.cpp:165] Memory required for data: 2716729856
I0111 18:29:32.438762 12987 layer_factory.hpp:77] Creating layer scale2c_branch2a
I0111 18:29:32.438786 12987 net.cpp:100] Creating Layer scale2c_branch2a
I0111 18:29:32.438796 12987 net.cpp:434] scale2c_branch2a <- res2c_branch2a
I0111 18:29:32.438803 12987 net.cpp:395] scale2c_branch2a -> res2c_branch2a (in-place)
I0111 18:29:32.438886 12987 layer_factory.hpp:77] Creating layer scale2c_branch2a
I0111 18:29:32.439129 12987 net.cpp:150] Setting up scale2c_branch2a
I0111 18:29:32.439144 12987 net.cpp:157] Top shape: 32 64 56 56 (6422528)
I0111 18:29:32.439151 12987 net.cpp:165] Memory required for data: 2742419968
I0111 18:29:32.439163 12987 layer_factory.hpp:77] Creating layer res2c_branch2a_relu
I0111 18:29:32.439175 12987 net.cpp:100] Creating Layer res2c_branch2a_relu
I0111 18:29:32.439182 12987 net.cpp:434] res2c_branch2a_relu <- res2c_branch2a
I0111 18:29:32.439198 12987 net.cpp:395] res2c_branch2a_relu -> res2c_branch2a (in-place)
I0111 18:29:32.440683 12987 net.cpp:150] Setting up res2c_branch2a_relu
I0111 18:29:32.440708 12987 net.cpp:157] Top shape: 32 64 56 56 (6422528)
I0111 18:29:32.440714 12987 net.cpp:165] Memory required for data: 2768110080
I0111 18:29:32.440721 12987 layer_factory.hpp:77] Creating layer res2c_branch2b
I0111 18:29:32.440739 12987 net.cpp:100] Creating Layer res2c_branch2b
I0111 18:29:32.440748 12987 net.cpp:434] res2c_branch2b <- res2c_branch2a
I0111 18:29:32.440759 12987 net.cpp:408] res2c_branch2b -> res2c_branch2b
I0111 18:29:32.445277 12987 net.cpp:150] Setting up res2c_branch2b
I0111 18:29:32.445315 12987 net.cpp:157] Top shape: 32 64 56 56 (6422528)
I0111 18:29:32.445327 12987 net.cpp:165] Memory required for data: 2793800192
I0111 18:29:32.445336 12987 layer_factory.hpp:77] Creating layer bn2c_branch2b
I0111 18:29:32.445350 12987 net.cpp:100] Creating Layer bn2c_branch2b
I0111 18:29:32.445359 12987 net.cpp:434] bn2c_branch2b <- res2c_branch2b
I0111 18:29:32.445369 12987 net.cpp:395] bn2c_branch2b -> res2c_branch2b (in-place)
I0111 18:29:32.445737 12987 net.cpp:150] Setting up bn2c_branch2b
I0111 18:29:32.445751 12987 net.cpp:157] Top shape: 32 64 56 56 (6422528)
I0111 18:29:32.445756 12987 net.cpp:165] Memory required for data: 2819490304
I0111 18:29:32.445766 12987 layer_factory.hpp:77] Creating layer scale2c_branch2b
I0111 18:29:32.445791 12987 net.cpp:100] Creating Layer scale2c_branch2b
I0111 18:29:32.445797 12987 net.cpp:434] scale2c_branch2b <- res2c_branch2b
I0111 18:29:32.445806 12987 net.cpp:395] scale2c_branch2b -> res2c_branch2b (in-place)
I0111 18:29:32.445890 12987 layer_factory.hpp:77] Creating layer scale2c_branch2b
I0111 18:29:32.446120 12987 net.cpp:150] Setting up scale2c_branch2b
I0111 18:29:32.446142 12987 net.cpp:157] Top shape: 32 64 56 56 (6422528)
I0111 18:29:32.446147 12987 net.cpp:165] Memory required for data: 2845180416
I0111 18:29:32.446157 12987 layer_factory.hpp:77] Creating layer res2c_branch2b_relu
I0111 18:29:32.446168 12987 net.cpp:100] Creating Layer res2c_branch2b_relu
I0111 18:29:32.446173 12987 net.cpp:434] res2c_branch2b_relu <- res2c_branch2b
I0111 18:29:32.446180 12987 net.cpp:395] res2c_branch2b_relu -> res2c_branch2b (in-place)
I0111 18:29:32.446513 12987 net.cpp:150] Setting up res2c_branch2b_relu
I0111 18:29:32.446530 12987 net.cpp:157] Top shape: 32 64 56 56 (6422528)
I0111 18:29:32.446535 12987 net.cpp:165] Memory required for data: 2870870528
I0111 18:29:32.446540 12987 layer_factory.hpp:77] Creating layer res2c_branch2c
I0111 18:29:32.446557 12987 net.cpp:100] Creating Layer res2c_branch2c
I0111 18:29:32.446563 12987 net.cpp:434] res2c_branch2c <- res2c_branch2b
I0111 18:29:32.446574 12987 net.cpp:408] res2c_branch2c -> res2c_branch2c
I0111 18:29:32.451428 12987 net.cpp:150] Setting up res2c_branch2c
I0111 18:29:32.451454 12987 net.cpp:157] Top shape: 32 256 56 56 (25690112)
I0111 18:29:32.451460 12987 net.cpp:165] Memory required for data: 2973630976
I0111 18:29:32.451469 12987 layer_factory.hpp:77] Creating layer bn2c_branch2c
I0111 18:29:32.451483 12987 net.cpp:100] Creating Layer bn2c_branch2c
I0111 18:29:32.451488 12987 net.cpp:434] bn2c_branch2c <- res2c_branch2c
I0111 18:29:32.451508 12987 net.cpp:395] bn2c_branch2c -> res2c_branch2c (in-place)
I0111 18:29:32.451882 12987 net.cpp:150] Setting up bn2c_branch2c
I0111 18:29:32.451900 12987 net.cpp:157] Top shape: 32 256 56 56 (25690112)
I0111 18:29:32.451903 12987 net.cpp:165] Memory required for data: 3076391424
I0111 18:29:32.451930 12987 layer_factory.hpp:77] Creating layer scale2c_branch2c
I0111 18:29:32.451953 12987 net.cpp:100] Creating Layer scale2c_branch2c
I0111 18:29:32.451962 12987 net.cpp:434] scale2c_branch2c <- res2c_branch2c
I0111 18:29:32.451972 12987 net.cpp:395] scale2c_branch2c -> res2c_branch2c (in-place)
I0111 18:29:32.452050 12987 layer_factory.hpp:77] Creating layer scale2c_branch2c
I0111 18:29:32.452265 12987 net.cpp:150] Setting up scale2c_branch2c
I0111 18:29:32.452280 12987 net.cpp:157] Top shape: 32 256 56 56 (25690112)
I0111 18:29:32.452286 12987 net.cpp:165] Memory required for data: 3179151872
I0111 18:29:32.452296 12987 layer_factory.hpp:77] Creating layer res2c
I0111 18:29:32.452306 12987 net.cpp:100] Creating Layer res2c
I0111 18:29:32.452312 12987 net.cpp:434] res2c <- res2b_res2b_relu_0_split_1
I0111 18:29:32.452320 12987 net.cpp:434] res2c <- res2c_branch2c
I0111 18:29:32.452332 12987 net.cpp:408] res2c -> res2c
I0111 18:29:32.452376 12987 net.cpp:150] Setting up res2c
I0111 18:29:32.452389 12987 net.cpp:157] Top shape: 32 256 56 56 (25690112)
I0111 18:29:32.452394 12987 net.cpp:165] Memory required for data: 3281912320
I0111 18:29:32.452399 12987 layer_factory.hpp:77] Creating layer res2c_relu
I0111 18:29:32.452406 12987 net.cpp:100] Creating Layer res2c_relu
I0111 18:29:32.452415 12987 net.cpp:434] res2c_relu <- res2c
I0111 18:29:32.452424 12987 net.cpp:395] res2c_relu -> res2c (in-place)
I0111 18:29:32.453862 12987 net.cpp:150] Setting up res2c_relu
I0111 18:29:32.453886 12987 net.cpp:157] Top shape: 32 256 56 56 (25690112)
I0111 18:29:32.453891 12987 net.cpp:165] Memory required for data: 3384672768
I0111 18:29:32.453896 12987 layer_factory.hpp:77] Creating layer res2c_res2c_relu_0_split
I0111 18:29:32.453907 12987 net.cpp:100] Creating Layer res2c_res2c_relu_0_split
I0111 18:29:32.453913 12987 net.cpp:434] res2c_res2c_relu_0_split <- res2c
I0111 18:29:32.453927 12987 net.cpp:408] res2c_res2c_relu_0_split -> res2c_res2c_relu_0_split_0
I0111 18:29:32.453943 12987 net.cpp:408] res2c_res2c_relu_0_split -> res2c_res2c_relu_0_split_1
I0111 18:29:32.454025 12987 net.cpp:150] Setting up res2c_res2c_relu_0_split
I0111 18:29:32.454037 12987 net.cpp:157] Top shape: 32 256 56 56 (25690112)
I0111 18:29:32.454046 12987 net.cpp:157] Top shape: 32 256 56 56 (25690112)
I0111 18:29:32.454061 12987 net.cpp:165] Memory required for data: 3590193664
I0111 18:29:32.454078 12987 layer_factory.hpp:77] Creating layer res3a_branch1
I0111 18:29:32.454097 12987 net.cpp:100] Creating Layer res3a_branch1
I0111 18:29:32.454107 12987 net.cpp:434] res3a_branch1 <- res2c_res2c_relu_0_split_0
I0111 18:29:32.454116 12987 net.cpp:408] res3a_branch1 -> res3a_branch1
I0111 18:29:32.459952 12987 net.cpp:150] Setting up res3a_branch1
I0111 18:29:32.459977 12987 net.cpp:157] Top shape: 32 512 28 28 (12845056)
I0111 18:29:32.459983 12987 net.cpp:165] Memory required for data: 3641573888
I0111 18:29:32.459992 12987 layer_factory.hpp:77] Creating layer bn3a_branch1
I0111 18:29:32.460008 12987 net.cpp:100] Creating Layer bn3a_branch1
I0111 18:29:32.460016 12987 net.cpp:434] bn3a_branch1 <- res3a_branch1
I0111 18:29:32.460026 12987 net.cpp:395] bn3a_branch1 -> res3a_branch1 (in-place)
I0111 18:29:32.461427 12987 net.cpp:150] Setting up bn3a_branch1
I0111 18:29:32.461449 12987 net.cpp:157] Top shape: 32 512 28 28 (12845056)
I0111 18:29:32.461458 12987 net.cpp:165] Memory required for data: 3692954112
I0111 18:29:32.461472 12987 layer_factory.hpp:77] Creating layer scale3a_branch1
I0111 18:29:32.461486 12987 net.cpp:100] Creating Layer scale3a_branch1
I0111 18:29:32.461494 12987 net.cpp:434] scale3a_branch1 <- res3a_branch1
I0111 18:29:32.461503 12987 net.cpp:395] scale3a_branch1 -> res3a_branch1 (in-place)
I0111 18:29:32.461575 12987 layer_factory.hpp:77] Creating layer scale3a_branch1
I0111 18:29:32.461762 12987 net.cpp:150] Setting up scale3a_branch1
I0111 18:29:32.461776 12987 net.cpp:157] Top shape: 32 512 28 28 (12845056)
I0111 18:29:32.461781 12987 net.cpp:165] Memory required for data: 3744334336
I0111 18:29:32.461789 12987 layer_factory.hpp:77] Creating layer res3a_branch2a
I0111 18:29:32.461807 12987 net.cpp:100] Creating Layer res3a_branch2a
I0111 18:29:32.461814 12987 net.cpp:434] res3a_branch2a <- res2c_res2c_relu_0_split_1
I0111 18:29:32.461827 12987 net.cpp:408] res3a_branch2a -> res3a_branch2a
I0111 18:29:32.466696 12987 net.cpp:150] Setting up res3a_branch2a
I0111 18:29:32.466722 12987 net.cpp:157] Top shape: 32 128 28 28 (3211264)
I0111 18:29:32.466730 12987 net.cpp:165] Memory required for data: 3757179392
I0111 18:29:32.466748 12987 layer_factory.hpp:77] Creating layer bn3a_branch2a
I0111 18:29:32.466761 12987 net.cpp:100] Creating Layer bn3a_branch2a
I0111 18:29:32.466769 12987 net.cpp:434] bn3a_branch2a <- res3a_branch2a
I0111 18:29:32.466779 12987 net.cpp:395] bn3a_branch2a -> res3a_branch2a (in-place)
I0111 18:29:32.467110 12987 net.cpp:150] Setting up bn3a_branch2a
I0111 18:29:32.467123 12987 net.cpp:157] Top shape: 32 128 28 28 (3211264)
I0111 18:29:32.467128 12987 net.cpp:165] Memory required for data: 3770024448
I0111 18:29:32.467139 12987 layer_factory.hpp:77] Creating layer scale3a_branch2a
I0111 18:29:32.467149 12987 net.cpp:100] Creating Layer scale3a_branch2a
I0111 18:29:32.467154 12987 net.cpp:434] scale3a_branch2a <- res3a_branch2a
I0111 18:29:32.467164 12987 net.cpp:395] scale3a_branch2a -> res3a_branch2a (in-place)
I0111 18:29:32.467231 12987 layer_factory.hpp:77] Creating layer scale3a_branch2a
I0111 18:29:32.467411 12987 net.cpp:150] Setting up scale3a_branch2a
I0111 18:29:32.467424 12987 net.cpp:157] Top shape: 32 128 28 28 (3211264)
I0111 18:29:32.467428 12987 net.cpp:165] Memory required for data: 3782869504
I0111 18:29:32.467437 12987 layer_factory.hpp:77] Creating layer res3a_branch2a_relu
I0111 18:29:32.467447 12987 net.cpp:100] Creating Layer res3a_branch2a_relu
I0111 18:29:32.467453 12987 net.cpp:434] res3a_branch2a_relu <- res3a_branch2a
I0111 18:29:32.467465 12987 net.cpp:395] res3a_branch2a_relu -> res3a_branch2a (in-place)
I0111 18:29:32.469094 12987 net.cpp:150] Setting up res3a_branch2a_relu
I0111 18:29:32.469116 12987 net.cpp:157] Top shape: 32 128 28 28 (3211264)
I0111 18:29:32.469123 12987 net.cpp:165] Memory required for data: 3795714560
I0111 18:29:32.469127 12987 layer_factory.hpp:77] Creating layer res3a_branch2b
I0111 18:29:32.469156 12987 net.cpp:100] Creating Layer res3a_branch2b
I0111 18:29:32.469166 12987 net.cpp:434] res3a_branch2b <- res3a_branch2a
I0111 18:29:32.469173 12987 net.cpp:408] res3a_branch2b -> res3a_branch2b
I0111 18:29:32.473582 12987 net.cpp:150] Setting up res3a_branch2b
I0111 18:29:32.473603 12987 net.cpp:157] Top shape: 32 128 28 28 (3211264)
I0111 18:29:32.473608 12987 net.cpp:165] Memory required for data: 3808559616
I0111 18:29:32.473618 12987 layer_factory.hpp:77] Creating layer bn3a_branch2b
I0111 18:29:32.473633 12987 net.cpp:100] Creating Layer bn3a_branch2b
I0111 18:29:32.473639 12987 net.cpp:434] bn3a_branch2b <- res3a_branch2b
I0111 18:29:32.473645 12987 net.cpp:395] bn3a_branch2b -> res3a_branch2b (in-place)
I0111 18:29:32.473884 12987 net.cpp:150] Setting up bn3a_branch2b
I0111 18:29:32.473893 12987 net.cpp:157] Top shape: 32 128 28 28 (3211264)
I0111 18:29:32.473897 12987 net.cpp:165] Memory required for data: 3821404672
I0111 18:29:32.473906 12987 layer_factory.hpp:77] Creating layer scale3a_branch2b
I0111 18:29:32.473913 12987 net.cpp:100] Creating Layer scale3a_branch2b
I0111 18:29:32.473919 12987 net.cpp:434] scale3a_branch2b <- res3a_branch2b
I0111 18:29:32.473927 12987 net.cpp:395] scale3a_branch2b -> res3a_branch2b (in-place)
I0111 18:29:32.473986 12987 layer_factory.hpp:77] Creating layer scale3a_branch2b
I0111 18:29:32.474123 12987 net.cpp:150] Setting up scale3a_branch2b
I0111 18:29:32.474133 12987 net.cpp:157] Top shape: 32 128 28 28 (3211264)
I0111 18:29:32.474135 12987 net.cpp:165] Memory required for data: 3834249728
I0111 18:29:32.474143 12987 layer_factory.hpp:77] Creating layer res3a_branch2b_relu
I0111 18:29:32.474158 12987 net.cpp:100] Creating Layer res3a_branch2b_relu
I0111 18:29:32.474165 12987 net.cpp:434] res3a_branch2b_relu <- res3a_branch2b
I0111 18:29:32.474172 12987 net.cpp:395] res3a_branch2b_relu -> res3a_branch2b (in-place)
I0111 18:29:32.475109 12987 net.cpp:150] Setting up res3a_branch2b_relu
I0111 18:29:32.475126 12987 net.cpp:157] Top shape: 32 128 28 28 (3211264)
I0111 18:29:32.475136 12987 net.cpp:165] Memory required for data: 3847094784
I0111 18:29:32.475142 12987 layer_factory.hpp:77] Creating layer res3a_branch2c
I0111 18:29:32.475174 12987 net.cpp:100] Creating Layer res3a_branch2c
I0111 18:29:32.475183 12987 net.cpp:434] res3a_branch2c <- res3a_branch2b
I0111 18:29:32.475190 12987 net.cpp:408] res3a_branch2c -> res3a_branch2c
I0111 18:29:32.480370 12987 net.cpp:150] Setting up res3a_branch2c
I0111 18:29:32.480407 12987 net.cpp:157] Top shape: 32 512 28 28 (12845056)
I0111 18:29:32.480423 12987 net.cpp:165] Memory required for data: 3898475008
I0111 18:29:32.480448 12987 layer_factory.hpp:77] Creating layer bn3a_branch2c
I0111 18:29:32.480466 12987 net.cpp:100] Creating Layer bn3a_branch2c
I0111 18:29:32.480479 12987 net.cpp:434] bn3a_branch2c <- res3a_branch2c
I0111 18:29:32.480501 12987 net.cpp:395] bn3a_branch2c -> res3a_branch2c (in-place)
I0111 18:29:32.480949 12987 net.cpp:150] Setting up bn3a_branch2c
I0111 18:29:32.480967 12987 net.cpp:157] Top shape: 32 512 28 28 (12845056)
I0111 18:29:32.480981 12987 net.cpp:165] Memory required for data: 3949855232
I0111 18:29:32.481007 12987 layer_factory.hpp:77] Creating layer scale3a_branch2c
I0111 18:29:32.481024 12987 net.cpp:100] Creating Layer scale3a_branch2c
I0111 18:29:32.481036 12987 net.cpp:434] scale3a_branch2c <- res3a_branch2c
I0111 18:29:32.481053 12987 net.cpp:395] scale3a_branch2c -> res3a_branch2c (in-place)
I0111 18:29:32.481161 12987 layer_factory.hpp:77] Creating layer scale3a_branch2c
I0111 18:29:32.481411 12987 net.cpp:150] Setting up scale3a_branch2c
I0111 18:29:32.481431 12987 net.cpp:157] Top shape: 32 512 28 28 (12845056)
I0111 18:29:32.481443 12987 net.cpp:165] Memory required for data: 4001235456
I0111 18:29:32.481462 12987 layer_factory.hpp:77] Creating layer res3a
I0111 18:29:32.481482 12987 net.cpp:100] Creating Layer res3a
I0111 18:29:32.481493 12987 net.cpp:434] res3a <- res3a_branch1
I0111 18:29:32.481510 12987 net.cpp:434] res3a <- res3a_branch2c
I0111 18:29:32.481534 12987 net.cpp:408] res3a -> res3a
I0111 18:29:32.481622 12987 net.cpp:150] Setting up res3a
I0111 18:29:32.481642 12987 net.cpp:157] Top shape: 32 512 28 28 (12845056)
I0111 18:29:32.481654 12987 net.cpp:165] Memory required for data: 4052615680
I0111 18:29:32.481667 12987 layer_factory.hpp:77] Creating layer res3a_relu
I0111 18:29:32.481685 12987 net.cpp:100] Creating Layer res3a_relu
I0111 18:29:32.481698 12987 net.cpp:434] res3a_relu <- res3a
I0111 18:29:32.481716 12987 net.cpp:395] res3a_relu -> res3a (in-place)
I0111 18:29:32.482144 12987 net.cpp:150] Setting up res3a_relu
I0111 18:29:32.482168 12987 net.cpp:157] Top shape: 32 512 28 28 (12845056)
I0111 18:29:32.482185 12987 net.cpp:165] Memory required for data: 4103995904
I0111 18:29:32.482203 12987 layer_factory.hpp:77] Creating layer res3a_res3a_relu_0_split
I0111 18:29:32.482221 12987 net.cpp:100] Creating Layer res3a_res3a_relu_0_split
I0111 18:29:32.482234 12987 net.cpp:434] res3a_res3a_relu_0_split <- res3a
I0111 18:29:32.482254 12987 net.cpp:408] res3a_res3a_relu_0_split -> res3a_res3a_relu_0_split_0
I0111 18:29:32.482280 12987 net.cpp:408] res3a_res3a_relu_0_split -> res3a_res3a_relu_0_split_1
I0111 18:29:32.482379 12987 net.cpp:150] Setting up res3a_res3a_relu_0_split
I0111 18:29:32.482396 12987 net.cpp:157] Top shape: 32 512 28 28 (12845056)
I0111 18:29:32.482414 12987 net.cpp:157] Top shape: 32 512 28 28 (12845056)
I0111 18:29:32.482425 12987 net.cpp:165] Memory required for data: 4206756352
I0111 18:29:32.482434 12987 layer_factory.hpp:77] Creating layer res3b_branch2a
I0111 18:29:32.482465 12987 net.cpp:100] Creating Layer res3b_branch2a
I0111 18:29:32.482475 12987 net.cpp:434] res3b_branch2a <- res3a_res3a_relu_0_split_0
I0111 18:29:32.482499 12987 net.cpp:408] res3b_branch2a -> res3b_branch2a
I0111 18:29:32.488919 12987 net.cpp:150] Setting up res3b_branch2a
I0111 18:29:32.488955 12987 net.cpp:157] Top shape: 32 128 28 28 (3211264)
I0111 18:29:32.488970 12987 net.cpp:165] Memory required for data: 4219601408
I0111 18:29:32.488989 12987 layer_factory.hpp:77] Creating layer bn3b_branch2a
I0111 18:29:32.489008 12987 net.cpp:100] Creating Layer bn3b_branch2a
I0111 18:29:32.489019 12987 net.cpp:434] bn3b_branch2a <- res3b_branch2a
I0111 18:29:32.489037 12987 net.cpp:395] bn3b_branch2a -> res3b_branch2a (in-place)
I0111 18:29:32.489449 12987 net.cpp:150] Setting up bn3b_branch2a
I0111 18:29:32.489465 12987 net.cpp:157] Top shape: 32 128 28 28 (3211264)
I0111 18:29:32.489473 12987 net.cpp:165] Memory required for data: 4232446464
I0111 18:29:32.489486 12987 layer_factory.hpp:77] Creating layer scale3b_branch2a
I0111 18:29:32.489503 12987 net.cpp:100] Creating Layer scale3b_branch2a
I0111 18:29:32.489516 12987 net.cpp:434] scale3b_branch2a <- res3b_branch2a
I0111 18:29:32.489528 12987 net.cpp:395] scale3b_branch2a -> res3b_branch2a (in-place)
I0111 18:29:32.489619 12987 layer_factory.hpp:77] Creating layer scale3b_branch2a
I0111 18:29:32.489853 12987 net.cpp:150] Setting up scale3b_branch2a
I0111 18:29:32.489869 12987 net.cpp:157] Top shape: 32 128 28 28 (3211264)
I0111 18:29:32.489877 12987 net.cpp:165] Memory required for data: 4245291520
I0111 18:29:32.489890 12987 layer_factory.hpp:77] Creating layer res3b_branch2a_relu
I0111 18:29:32.489903 12987 net.cpp:100] Creating Layer res3b_branch2a_relu
I0111 18:29:32.489915 12987 net.cpp:434] res3b_branch2a_relu <- res3b_branch2a
I0111 18:29:32.489936 12987 net.cpp:395] res3b_branch2a_relu -> res3b_branch2a (in-place)
I0111 18:29:32.491436 12987 net.cpp:150] Setting up res3b_branch2a_relu
I0111 18:29:32.491464 12987 net.cpp:157] Top shape: 32 128 28 28 (3211264)
I0111 18:29:32.491478 12987 net.cpp:165] Memory required for data: 4258136576
I0111 18:29:32.491492 12987 layer_factory.hpp:77] Creating layer res3b_branch2b
I0111 18:29:32.491520 12987 net.cpp:100] Creating Layer res3b_branch2b
I0111 18:29:32.491531 12987 net.cpp:434] res3b_branch2b <- res3b_branch2a
I0111 18:29:32.491549 12987 net.cpp:408] res3b_branch2b -> res3b_branch2b
I0111 18:29:32.498271 12987 net.cpp:150] Setting up res3b_branch2b
I0111 18:29:32.498301 12987 net.cpp:157] Top shape: 32 128 28 28 (3211264)
I0111 18:29:32.498325 12987 net.cpp:165] Memory required for data: 4270981632
I0111 18:29:32.498344 12987 layer_factory.hpp:77] Creating layer bn3b_branch2b
I0111 18:29:32.498366 12987 net.cpp:100] Creating Layer bn3b_branch2b
I0111 18:29:32.498376 12987 net.cpp:434] bn3b_branch2b <- res3b_branch2b
I0111 18:29:32.498392 12987 net.cpp:395] bn3b_branch2b -> res3b_branch2b (in-place)
I0111 18:29:32.498785 12987 net.cpp:150] Setting up bn3b_branch2b
I0111 18:29:32.498801 12987 net.cpp:157] Top shape: 32 128 28 28 (3211264)
I0111 18:29:32.498809 12987 net.cpp:165] Memory required for data: 4283826688
I0111 18:29:32.498821 12987 layer_factory.hpp:77] Creating layer scale3b_branch2b
I0111 18:29:32.498834 12987 net.cpp:100] Creating Layer scale3b_branch2b
I0111 18:29:32.498847 12987 net.cpp:434] scale3b_branch2b <- res3b_branch2b
I0111 18:29:32.498862 12987 net.cpp:395] scale3b_branch2b -> res3b_branch2b (in-place)
I0111 18:29:32.498944 12987 layer_factory.hpp:77] Creating layer scale3b_branch2b
I0111 18:29:32.499157 12987 net.cpp:150] Setting up scale3b_branch2b
I0111 18:29:32.499174 12987 net.cpp:157] Top shape: 32 128 28 28 (3211264)
I0111 18:29:32.499181 12987 net.cpp:165] Memory required for data: 4296671744
I0111 18:29:32.499193 12987 layer_factory.hpp:77] Creating layer res3b_branch2b_relu
I0111 18:29:32.499204 12987 net.cpp:100] Creating Layer res3b_branch2b_relu
I0111 18:29:32.499214 12987 net.cpp:434] res3b_branch2b_relu <- res3b_branch2b
I0111 18:29:32.499222 12987 net.cpp:395] res3b_branch2b_relu -> res3b_branch2b (in-place)
I0111 18:29:32.500701 12987 net.cpp:150] Setting up res3b_branch2b_relu
I0111 18:29:32.500727 12987 net.cpp:157] Top shape: 32 128 28 28 (3211264)
I0111 18:29:32.500735 12987 net.cpp:165] Memory required for data: 4309516800
I0111 18:29:32.500741 12987 layer_factory.hpp:77] Creating layer res3b_branch2c
I0111 18:29:32.500762 12987 net.cpp:100] Creating Layer res3b_branch2c
I0111 18:29:32.500771 12987 net.cpp:434] res3b_branch2c <- res3b_branch2b
I0111 18:29:32.500782 12987 net.cpp:408] res3b_branch2c -> res3b_branch2c
I0111 18:29:32.506614 12987 net.cpp:150] Setting up res3b_branch2c
I0111 18:29:32.506654 12987 net.cpp:157] Top shape: 32 512 28 28 (12845056)
I0111 18:29:32.506661 12987 net.cpp:165] Memory required for data: 4360897024
I0111 18:29:32.506674 12987 layer_factory.hpp:77] Creating layer bn3b_branch2c
I0111 18:29:32.506690 12987 net.cpp:100] Creating Layer bn3b_branch2c
I0111 18:29:32.506703 12987 net.cpp:434] bn3b_branch2c <- res3b_branch2c
I0111 18:29:32.506717 12987 net.cpp:395] bn3b_branch2c -> res3b_branch2c (in-place)
I0111 18:29:32.507176 12987 net.cpp:150] Setting up bn3b_branch2c
I0111 18:29:32.507194 12987 net.cpp:157] Top shape: 32 512 28 28 (12845056)
I0111 18:29:32.507201 12987 net.cpp:165] Memory required for data: 4412277248
I0111 18:29:32.507216 12987 layer_factory.hpp:77] Creating layer scale3b_branch2c
I0111 18:29:32.507244 12987 net.cpp:100] Creating Layer scale3b_branch2c
I0111 18:29:32.507254 12987 net.cpp:434] scale3b_branch2c <- res3b_branch2c
I0111 18:29:32.507267 12987 net.cpp:395] scale3b_branch2c -> res3b_branch2c (in-place)
I0111 18:29:32.507366 12987 layer_factory.hpp:77] Creating layer scale3b_branch2c
I0111 18:29:32.507616 12987 net.cpp:150] Setting up scale3b_branch2c
I0111 18:29:32.507635 12987 net.cpp:157] Top shape: 32 512 28 28 (12845056)
I0111 18:29:32.507643 12987 net.cpp:165] Memory required for data: 4463657472
I0111 18:29:32.507655 12987 layer_factory.hpp:77] Creating layer res3b
I0111 18:29:32.507668 12987 net.cpp:100] Creating Layer res3b
I0111 18:29:32.507678 12987 net.cpp:434] res3b <- res3a_res3a_relu_0_split_1
I0111 18:29:32.507686 12987 net.cpp:434] res3b <- res3b_branch2c
I0111 18:29:32.507699 12987 net.cpp:408] res3b -> res3b
I0111 18:29:32.507756 12987 net.cpp:150] Setting up res3b
I0111 18:29:32.507771 12987 net.cpp:157] Top shape: 32 512 28 28 (12845056)
I0111 18:29:32.507776 12987 net.cpp:165] Memory required for data: 4515037696
I0111 18:29:32.507782 12987 layer_factory.hpp:77] Creating layer res3b_relu
I0111 18:29:32.507809 12987 net.cpp:100] Creating Layer res3b_relu
I0111 18:29:32.507817 12987 net.cpp:434] res3b_relu <- res3b
I0111 18:29:32.507825 12987 net.cpp:395] res3b_relu -> res3b (in-place)
I0111 18:29:32.509487 12987 net.cpp:150] Setting up res3b_relu
I0111 18:29:32.509517 12987 net.cpp:157] Top shape: 32 512 28 28 (12845056)
I0111 18:29:32.509526 12987 net.cpp:165] Memory required for data: 4566417920
I0111 18:29:32.509533 12987 layer_factory.hpp:77] Creating layer res3b_res3b_relu_0_split
I0111 18:29:32.509552 12987 net.cpp:100] Creating Layer res3b_res3b_relu_0_split
I0111 18:29:32.509562 12987 net.cpp:434] res3b_res3b_relu_0_split <- res3b
I0111 18:29:32.509572 12987 net.cpp:408] res3b_res3b_relu_0_split -> res3b_res3b_relu_0_split_0
I0111 18:29:32.509599 12987 net.cpp:408] res3b_res3b_relu_0_split -> res3b_res3b_relu_0_split_1
I0111 18:29:32.509704 12987 net.cpp:150] Setting up res3b_res3b_relu_0_split
I0111 18:29:32.509721 12987 net.cpp:157] Top shape: 32 512 28 28 (12845056)
I0111 18:29:32.509732 12987 net.cpp:157] Top shape: 32 512 28 28 (12845056)
I0111 18:29:32.509737 12987 net.cpp:165] Memory required for data: 4669178368
I0111 18:29:32.509742 12987 layer_factory.hpp:77] Creating layer res3c_branch2a
I0111 18:29:32.509776 12987 net.cpp:100] Creating Layer res3c_branch2a
I0111 18:29:32.509786 12987 net.cpp:434] res3c_branch2a <- res3b_res3b_relu_0_split_0
I0111 18:29:32.509802 12987 net.cpp:408] res3c_branch2a -> res3c_branch2a
I0111 18:29:32.515560 12987 net.cpp:150] Setting up res3c_branch2a
I0111 18:29:32.515594 12987 net.cpp:157] Top shape: 32 128 28 28 (3211264)
I0111 18:29:32.515602 12987 net.cpp:165] Memory required for data: 4682023424
I0111 18:29:32.515614 12987 layer_factory.hpp:77] Creating layer bn3c_branch2a
I0111 18:29:32.515628 12987 net.cpp:100] Creating Layer bn3c_branch2a
I0111 18:29:32.515637 12987 net.cpp:434] bn3c_branch2a <- res3c_branch2a
I0111 18:29:32.515650 12987 net.cpp:395] bn3c_branch2a -> res3c_branch2a (in-place)
I0111 18:29:32.516080 12987 net.cpp:150] Setting up bn3c_branch2a
I0111 18:29:32.516096 12987 net.cpp:157] Top shape: 32 128 28 28 (3211264)
I0111 18:29:32.516101 12987 net.cpp:165] Memory required for data: 4694868480
I0111 18:29:32.516114 12987 layer_factory.hpp:77] Creating layer scale3c_branch2a
I0111 18:29:32.516130 12987 net.cpp:100] Creating Layer scale3c_branch2a
I0111 18:29:32.516139 12987 net.cpp:434] scale3c_branch2a <- res3c_branch2a
I0111 18:29:32.516147 12987 net.cpp:395] scale3c_branch2a -> res3c_branch2a (in-place)
I0111 18:29:32.516235 12987 layer_factory.hpp:77] Creating layer scale3c_branch2a
I0111 18:29:32.516477 12987 net.cpp:150] Setting up scale3c_branch2a
I0111 18:29:32.516494 12987 net.cpp:157] Top shape: 32 128 28 28 (3211264)
I0111 18:29:32.516499 12987 net.cpp:165] Memory required for data: 4707713536
I0111 18:29:32.516508 12987 layer_factory.hpp:77] Creating layer res3c_branch2a_relu
I0111 18:29:32.516520 12987 net.cpp:100] Creating Layer res3c_branch2a_relu
I0111 18:29:32.516528 12987 net.cpp:434] res3c_branch2a_relu <- res3c_branch2a
I0111 18:29:32.516540 12987 net.cpp:395] res3c_branch2a_relu -> res3c_branch2a (in-place)
I0111 18:29:32.518084 12987 net.cpp:150] Setting up res3c_branch2a_relu
I0111 18:29:32.518110 12987 net.cpp:157] Top shape: 32 128 28 28 (3211264)
I0111 18:29:32.518118 12987 net.cpp:165] Memory required for data: 4720558592
I0111 18:29:32.518124 12987 layer_factory.hpp:77] Creating layer res3c_branch2b
I0111 18:29:32.518158 12987 net.cpp:100] Creating Layer res3c_branch2b
I0111 18:29:32.518168 12987 net.cpp:434] res3c_branch2b <- res3c_branch2a
I0111 18:29:32.518182 12987 net.cpp:408] res3c_branch2b -> res3c_branch2b
I0111 18:29:32.525202 12987 net.cpp:150] Setting up res3c_branch2b
I0111 18:29:32.525244 12987 net.cpp:157] Top shape: 32 128 28 28 (3211264)
I0111 18:29:32.525254 12987 net.cpp:165] Memory required for data: 4733403648
I0111 18:29:32.525265 12987 layer_factory.hpp:77] Creating layer bn3c_branch2b
I0111 18:29:32.525284 12987 net.cpp:100] Creating Layer bn3c_branch2b
I0111 18:29:32.525305 12987 net.cpp:434] bn3c_branch2b <- res3c_branch2b
I0111 18:29:32.525317 12987 net.cpp:395] bn3c_branch2b -> res3c_branch2b (in-place)
I0111 18:29:32.525749 12987 net.cpp:150] Setting up bn3c_branch2b
I0111 18:29:32.525765 12987 net.cpp:157] Top shape: 32 128 28 28 (3211264)
I0111 18:29:32.525770 12987 net.cpp:165] Memory required for data: 4746248704
I0111 18:29:32.525782 12987 layer_factory.hpp:77] Creating layer scale3c_branch2b
I0111 18:29:32.525795 12987 net.cpp:100] Creating Layer scale3c_branch2b
I0111 18:29:32.525804 12987 net.cpp:434] scale3c_branch2b <- res3c_branch2b
I0111 18:29:32.525813 12987 net.cpp:395] scale3c_branch2b -> res3c_branch2b (in-place)
I0111 18:29:32.525894 12987 layer_factory.hpp:77] Creating layer scale3c_branch2b
I0111 18:29:32.526134 12987 net.cpp:150] Setting up scale3c_branch2b
I0111 18:29:32.526151 12987 net.cpp:157] Top shape: 32 128 28 28 (3211264)
I0111 18:29:32.526159 12987 net.cpp:165] Memory required for data: 4759093760
I0111 18:29:32.526168 12987 layer_factory.hpp:77] Creating layer res3c_branch2b_relu
I0111 18:29:32.526180 12987 net.cpp:100] Creating Layer res3c_branch2b_relu
I0111 18:29:32.526187 12987 net.cpp:434] res3c_branch2b_relu <- res3c_branch2b
I0111 18:29:32.526195 12987 net.cpp:395] res3c_branch2b_relu -> res3c_branch2b (in-place)
I0111 18:29:32.527658 12987 net.cpp:150] Setting up res3c_branch2b_relu
I0111 18:29:32.527683 12987 net.cpp:157] Top shape: 32 128 28 28 (3211264)
I0111 18:29:32.527691 12987 net.cpp:165] Memory required for data: 4771938816
I0111 18:29:32.527707 12987 layer_factory.hpp:77] Creating layer res3c_branch2c
I0111 18:29:32.527729 12987 net.cpp:100] Creating Layer res3c_branch2c
I0111 18:29:32.527739 12987 net.cpp:434] res3c_branch2c <- res3c_branch2b
I0111 18:29:32.527750 12987 net.cpp:408] res3c_branch2c -> res3c_branch2c
I0111 18:29:32.532733 12987 net.cpp:150] Setting up res3c_branch2c
I0111 18:29:32.532760 12987 net.cpp:157] Top shape: 32 512 28 28 (12845056)
I0111 18:29:32.532768 12987 net.cpp:165] Memory required for data: 4823319040
I0111 18:29:32.532778 12987 layer_factory.hpp:77] Creating layer bn3c_branch2c
I0111 18:29:32.532791 12987 net.cpp:100] Creating Layer bn3c_branch2c
I0111 18:29:32.532800 12987 net.cpp:434] bn3c_branch2c <- res3c_branch2c
I0111 18:29:32.532814 12987 net.cpp:395] bn3c_branch2c -> res3c_branch2c (in-place)
I0111 18:29:32.533208 12987 net.cpp:150] Setting up bn3c_branch2c
I0111 18:29:32.533222 12987 net.cpp:157] Top shape: 32 512 28 28 (12845056)
I0111 18:29:32.533231 12987 net.cpp:165] Memory required for data: 4874699264
I0111 18:29:32.533241 12987 layer_factory.hpp:77] Creating layer scale3c_branch2c
I0111 18:29:32.533253 12987 net.cpp:100] Creating Layer scale3c_branch2c
I0111 18:29:32.533262 12987 net.cpp:434] scale3c_branch2c <- res3c_branch2c
I0111 18:29:32.533269 12987 net.cpp:395] scale3c_branch2c -> res3c_branch2c (in-place)
I0111 18:29:32.533350 12987 layer_factory.hpp:77] Creating layer scale3c_branch2c
I0111 18:29:32.533563 12987 net.cpp:150] Setting up scale3c_branch2c
I0111 18:29:32.533577 12987 net.cpp:157] Top shape: 32 512 28 28 (12845056)
I0111 18:29:32.533582 12987 net.cpp:165] Memory required for data: 4926079488
I0111 18:29:32.533591 12987 layer_factory.hpp:77] Creating layer res3c
I0111 18:29:32.533605 12987 net.cpp:100] Creating Layer res3c
I0111 18:29:32.533614 12987 net.cpp:434] res3c <- res3b_res3b_relu_0_split_1
I0111 18:29:32.533622 12987 net.cpp:434] res3c <- res3c_branch2c
I0111 18:29:32.533629 12987 net.cpp:408] res3c -> res3c
I0111 18:29:32.533679 12987 net.cpp:150] Setting up res3c
I0111 18:29:32.533694 12987 net.cpp:157] Top shape: 32 512 28 28 (12845056)
I0111 18:29:32.533701 12987 net.cpp:165] Memory required for data: 4977459712
I0111 18:29:32.533716 12987 layer_factory.hpp:77] Creating layer res3c_relu
I0111 18:29:32.533728 12987 net.cpp:100] Creating Layer res3c_relu
I0111 18:29:32.533735 12987 net.cpp:434] res3c_relu <- res3c
I0111 18:29:32.533747 12987 net.cpp:395] res3c_relu -> res3c (in-place)
I0111 18:29:32.534092 12987 net.cpp:150] Setting up res3c_relu
I0111 18:29:32.534121 12987 net.cpp:157] Top shape: 32 512 28 28 (12845056)
I0111 18:29:32.534127 12987 net.cpp:165] Memory required for data: 5028839936
I0111 18:29:32.534133 12987 layer_factory.hpp:77] Creating layer res3c_res3c_relu_0_split
I0111 18:29:32.534143 12987 net.cpp:100] Creating Layer res3c_res3c_relu_0_split
I0111 18:29:32.534152 12987 net.cpp:434] res3c_res3c_relu_0_split <- res3c
I0111 18:29:32.534168 12987 net.cpp:408] res3c_res3c_relu_0_split -> res3c_res3c_relu_0_split_0
I0111 18:29:32.534183 12987 net.cpp:408] res3c_res3c_relu_0_split -> res3c_res3c_relu_0_split_1
I0111 18:29:32.534273 12987 net.cpp:150] Setting up res3c_res3c_relu_0_split
I0111 18:29:32.534287 12987 net.cpp:157] Top shape: 32 512 28 28 (12845056)
I0111 18:29:32.534294 12987 net.cpp:157] Top shape: 32 512 28 28 (12845056)
I0111 18:29:32.534301 12987 net.cpp:165] Memory required for data: 5131600384
I0111 18:29:32.534307 12987 layer_factory.hpp:77] Creating layer res3d_branch2a
I0111 18:29:32.534322 12987 net.cpp:100] Creating Layer res3d_branch2a
I0111 18:29:32.534330 12987 net.cpp:434] res3d_branch2a <- res3c_res3c_relu_0_split_0
I0111 18:29:32.534342 12987 net.cpp:408] res3d_branch2a -> res3d_branch2a
I0111 18:29:32.540148 12987 net.cpp:150] Setting up res3d_branch2a
I0111 18:29:32.540174 12987 net.cpp:157] Top shape: 32 128 28 28 (3211264)
I0111 18:29:32.540182 12987 net.cpp:165] Memory required for data: 5144445440
I0111 18:29:32.540192 12987 layer_factory.hpp:77] Creating layer bn3d_branch2a
I0111 18:29:32.540207 12987 net.cpp:100] Creating Layer bn3d_branch2a
I0111 18:29:32.540215 12987 net.cpp:434] bn3d_branch2a <- res3d_branch2a
I0111 18:29:32.540225 12987 net.cpp:395] bn3d_branch2a -> res3d_branch2a (in-place)
I0111 18:29:32.540602 12987 net.cpp:150] Setting up bn3d_branch2a
I0111 18:29:32.540616 12987 net.cpp:157] Top shape: 32 128 28 28 (3211264)
I0111 18:29:32.540624 12987 net.cpp:165] Memory required for data: 5157290496
I0111 18:29:32.540668 12987 layer_factory.hpp:77] Creating layer scale3d_branch2a
I0111 18:29:32.540683 12987 net.cpp:100] Creating Layer scale3d_branch2a
I0111 18:29:32.540690 12987 net.cpp:434] scale3d_branch2a <- res3d_branch2a
I0111 18:29:32.540699 12987 net.cpp:395] scale3d_branch2a -> res3d_branch2a (in-place)
I0111 18:29:32.540779 12987 layer_factory.hpp:77] Creating layer scale3d_branch2a
I0111 18:29:32.541000 12987 net.cpp:150] Setting up scale3d_branch2a
I0111 18:29:32.541014 12987 net.cpp:157] Top shape: 32 128 28 28 (3211264)
I0111 18:29:32.541019 12987 net.cpp:165] Memory required for data: 5170135552
I0111 18:29:32.541028 12987 layer_factory.hpp:77] Creating layer res3d_branch2a_relu
I0111 18:29:32.541038 12987 net.cpp:100] Creating Layer res3d_branch2a_relu
I0111 18:29:32.541043 12987 net.cpp:434] res3d_branch2a_relu <- res3d_branch2a
I0111 18:29:32.541054 12987 net.cpp:395] res3d_branch2a_relu -> res3d_branch2a (in-place)
I0111 18:29:32.542446 12987 net.cpp:150] Setting up res3d_branch2a_relu
I0111 18:29:32.542472 12987 net.cpp:157] Top shape: 32 128 28 28 (3211264)
I0111 18:29:32.542479 12987 net.cpp:165] Memory required for data: 5182980608
I0111 18:29:32.542485 12987 layer_factory.hpp:77] Creating layer res3d_branch2b
I0111 18:29:32.542500 12987 net.cpp:100] Creating Layer res3d_branch2b
I0111 18:29:32.542507 12987 net.cpp:434] res3d_branch2b <- res3d_branch2a
I0111 18:29:32.542520 12987 net.cpp:408] res3d_branch2b -> res3d_branch2b
I0111 18:29:32.548557 12987 net.cpp:150] Setting up res3d_branch2b
I0111 18:29:32.548583 12987 net.cpp:157] Top shape: 32 128 28 28 (3211264)
I0111 18:29:32.548590 12987 net.cpp:165] Memory required for data: 5195825664
I0111 18:29:32.548599 12987 layer_factory.hpp:77] Creating layer bn3d_branch2b
I0111 18:29:32.548611 12987 net.cpp:100] Creating Layer bn3d_branch2b
I0111 18:29:32.548619 12987 net.cpp:434] bn3d_branch2b <- res3d_branch2b
I0111 18:29:32.548626 12987 net.cpp:395] bn3d_branch2b -> res3d_branch2b (in-place)
I0111 18:29:32.548975 12987 net.cpp:150] Setting up bn3d_branch2b
I0111 18:29:32.548987 12987 net.cpp:157] Top shape: 32 128 28 28 (3211264)
I0111 18:29:32.549005 12987 net.cpp:165] Memory required for data: 5208670720
I0111 18:29:32.549033 12987 layer_factory.hpp:77] Creating layer scale3d_branch2b
I0111 18:29:32.549048 12987 net.cpp:100] Creating Layer scale3d_branch2b
I0111 18:29:32.549057 12987 net.cpp:434] scale3d_branch2b <- res3d_branch2b
I0111 18:29:32.549063 12987 net.cpp:395] scale3d_branch2b -> res3d_branch2b (in-place)
I0111 18:29:32.549140 12987 layer_factory.hpp:77] Creating layer scale3d_branch2b
I0111 18:29:32.549342 12987 net.cpp:150] Setting up scale3d_branch2b
I0111 18:29:32.549355 12987 net.cpp:157] Top shape: 32 128 28 28 (3211264)
I0111 18:29:32.549360 12987 net.cpp:165] Memory required for data: 5221515776
I0111 18:29:32.549367 12987 layer_factory.hpp:77] Creating layer res3d_branch2b_relu
I0111 18:29:32.549376 12987 net.cpp:100] Creating Layer res3d_branch2b_relu
I0111 18:29:32.549382 12987 net.cpp:434] res3d_branch2b_relu <- res3d_branch2b
I0111 18:29:32.549391 12987 net.cpp:395] res3d_branch2b_relu -> res3d_branch2b (in-place)
I0111 18:29:32.550693 12987 net.cpp:150] Setting up res3d_branch2b_relu
I0111 18:29:32.550717 12987 net.cpp:157] Top shape: 32 128 28 28 (3211264)
I0111 18:29:32.550725 12987 net.cpp:165] Memory required for data: 5234360832
I0111 18:29:32.550730 12987 layer_factory.hpp:77] Creating layer res3d_branch2c
I0111 18:29:32.550743 12987 net.cpp:100] Creating Layer res3d_branch2c
I0111 18:29:32.550750 12987 net.cpp:434] res3d_branch2c <- res3d_branch2b
I0111 18:29:32.550762 12987 net.cpp:408] res3d_branch2c -> res3d_branch2c
I0111 18:29:32.555153 12987 net.cpp:150] Setting up res3d_branch2c
I0111 18:29:32.555177 12987 net.cpp:157] Top shape: 32 512 28 28 (12845056)
I0111 18:29:32.555186 12987 net.cpp:165] Memory required for data: 5285741056
I0111 18:29:32.555193 12987 layer_factory.hpp:77] Creating layer bn3d_branch2c
I0111 18:29:32.555205 12987 net.cpp:100] Creating Layer bn3d_branch2c
I0111 18:29:32.555213 12987 net.cpp:434] bn3d_branch2c <- res3d_branch2c
I0111 18:29:32.555232 12987 net.cpp:395] bn3d_branch2c -> res3d_branch2c (in-place)
I0111 18:29:32.555579 12987 net.cpp:150] Setting up bn3d_branch2c
I0111 18:29:32.555593 12987 net.cpp:157] Top shape: 32 512 28 28 (12845056)
I0111 18:29:32.555598 12987 net.cpp:165] Memory required for data: 5337121280
I0111 18:29:32.555618 12987 layer_factory.hpp:77] Creating layer scale3d_branch2c
I0111 18:29:32.555630 12987 net.cpp:100] Creating Layer scale3d_branch2c
I0111 18:29:32.555639 12987 net.cpp:434] scale3d_branch2c <- res3d_branch2c
I0111 18:29:32.555646 12987 net.cpp:395] scale3d_branch2c -> res3d_branch2c (in-place)
I0111 18:29:32.555719 12987 layer_factory.hpp:77] Creating layer scale3d_branch2c
I0111 18:29:32.555912 12987 net.cpp:150] Setting up scale3d_branch2c
I0111 18:29:32.555925 12987 net.cpp:157] Top shape: 32 512 28 28 (12845056)
I0111 18:29:32.555929 12987 net.cpp:165] Memory required for data: 5388501504
I0111 18:29:32.555938 12987 layer_factory.hpp:77] Creating layer res3d
I0111 18:29:32.555948 12987 net.cpp:100] Creating Layer res3d
I0111 18:29:32.555954 12987 net.cpp:434] res3d <- res3c_res3c_relu_0_split_1
I0111 18:29:32.555960 12987 net.cpp:434] res3d <- res3d_branch2c
I0111 18:29:32.555968 12987 net.cpp:408] res3d -> res3d
I0111 18:29:32.556010 12987 net.cpp:150] Setting up res3d
I0111 18:29:32.556021 12987 net.cpp:157] Top shape: 32 512 28 28 (12845056)
I0111 18:29:32.556026 12987 net.cpp:165] Memory required for data: 5439881728
I0111 18:29:32.556031 12987 layer_factory.hpp:77] Creating layer res3d_relu
I0111 18:29:32.556037 12987 net.cpp:100] Creating Layer res3d_relu
I0111 18:29:32.556042 12987 net.cpp:434] res3d_relu <- res3d
I0111 18:29:32.556051 12987 net.cpp:395] res3d_relu -> res3d (in-place)
I0111 18:29:32.556332 12987 net.cpp:150] Setting up res3d_relu
I0111 18:29:32.556347 12987 net.cpp:157] Top shape: 32 512 28 28 (12845056)
I0111 18:29:32.556351 12987 net.cpp:165] Memory required for data: 5491261952
I0111 18:29:32.556356 12987 layer_factory.hpp:77] Creating layer res3d_res3d_relu_0_split
I0111 18:29:32.556365 12987 net.cpp:100] Creating Layer res3d_res3d_relu_0_split
I0111 18:29:32.556380 12987 net.cpp:434] res3d_res3d_relu_0_split <- res3d
I0111 18:29:32.556394 12987 net.cpp:408] res3d_res3d_relu_0_split -> res3d_res3d_relu_0_split_0
I0111 18:29:32.556407 12987 net.cpp:408] res3d_res3d_relu_0_split -> res3d_res3d_relu_0_split_1
I0111 18:29:32.556484 12987 net.cpp:150] Setting up res3d_res3d_relu_0_split
I0111 18:29:32.556495 12987 net.cpp:157] Top shape: 32 512 28 28 (12845056)
I0111 18:29:32.556501 12987 net.cpp:157] Top shape: 32 512 28 28 (12845056)
I0111 18:29:32.556505 12987 net.cpp:165] Memory required for data: 5594022400
I0111 18:29:32.556517 12987 layer_factory.hpp:77] Creating layer res4a_branch1
I0111 18:29:32.556536 12987 net.cpp:100] Creating Layer res4a_branch1
I0111 18:29:32.556543 12987 net.cpp:434] res4a_branch1 <- res3d_res3d_relu_0_split_0
I0111 18:29:32.556551 12987 net.cpp:408] res4a_branch1 -> res4a_branch1
I0111 18:29:32.569419 12987 net.cpp:150] Setting up res4a_branch1
I0111 18:29:32.569443 12987 net.cpp:157] Top shape: 32 1024 14 14 (6422528)
I0111 18:29:32.569450 12987 net.cpp:165] Memory required for data: 5619712512
I0111 18:29:32.569458 12987 layer_factory.hpp:77] Creating layer bn4a_branch1
I0111 18:29:32.569470 12987 net.cpp:100] Creating Layer bn4a_branch1
I0111 18:29:32.569478 12987 net.cpp:434] bn4a_branch1 <- res4a_branch1
I0111 18:29:32.569484 12987 net.cpp:395] bn4a_branch1 -> res4a_branch1 (in-place)
I0111 18:29:32.569816 12987 net.cpp:150] Setting up bn4a_branch1
I0111 18:29:32.569830 12987 net.cpp:157] Top shape: 32 1024 14 14 (6422528)
I0111 18:29:32.569834 12987 net.cpp:165] Memory required for data: 5645402624
I0111 18:29:32.569844 12987 layer_factory.hpp:77] Creating layer scale4a_branch1
I0111 18:29:32.569854 12987 net.cpp:100] Creating Layer scale4a_branch1
I0111 18:29:32.569859 12987 net.cpp:434] scale4a_branch1 <- res4a_branch1
I0111 18:29:32.569864 12987 net.cpp:395] scale4a_branch1 -> res4a_branch1 (in-place)
I0111 18:29:32.569923 12987 layer_factory.hpp:77] Creating layer scale4a_branch1
I0111 18:29:32.570111 12987 net.cpp:150] Setting up scale4a_branch1
I0111 18:29:32.570123 12987 net.cpp:157] Top shape: 32 1024 14 14 (6422528)
I0111 18:29:32.570127 12987 net.cpp:165] Memory required for data: 5671092736
I0111 18:29:32.570135 12987 layer_factory.hpp:77] Creating layer res4a_branch2a
I0111 18:29:32.570159 12987 net.cpp:100] Creating Layer res4a_branch2a
I0111 18:29:32.570168 12987 net.cpp:434] res4a_branch2a <- res3d_res3d_relu_0_split_1
I0111 18:29:32.570179 12987 net.cpp:408] res4a_branch2a -> res4a_branch2a
I0111 18:29:32.576040 12987 net.cpp:150] Setting up res4a_branch2a
I0111 18:29:32.576062 12987 net.cpp:157] Top shape: 32 256 14 14 (1605632)
I0111 18:29:32.576067 12987 net.cpp:165] Memory required for data: 5677515264
I0111 18:29:32.576074 12987 layer_factory.hpp:77] Creating layer bn4a_branch2a
I0111 18:29:32.576086 12987 net.cpp:100] Creating Layer bn4a_branch2a
I0111 18:29:32.576092 12987 net.cpp:434] bn4a_branch2a <- res4a_branch2a
I0111 18:29:32.576099 12987 net.cpp:395] bn4a_branch2a -> res4a_branch2a (in-place)
I0111 18:29:32.576405 12987 net.cpp:150] Setting up bn4a_branch2a
I0111 18:29:32.576416 12987 net.cpp:157] Top shape: 32 256 14 14 (1605632)
I0111 18:29:32.576421 12987 net.cpp:165] Memory required for data: 5683937792
I0111 18:29:32.576429 12987 layer_factory.hpp:77] Creating layer scale4a_branch2a
I0111 18:29:32.576436 12987 net.cpp:100] Creating Layer scale4a_branch2a
I0111 18:29:32.576441 12987 net.cpp:434] scale4a_branch2a <- res4a_branch2a
I0111 18:29:32.576448 12987 net.cpp:395] scale4a_branch2a -> res4a_branch2a (in-place)
I0111 18:29:32.576508 12987 layer_factory.hpp:77] Creating layer scale4a_branch2a
I0111 18:29:32.576683 12987 net.cpp:150] Setting up scale4a_branch2a
I0111 18:29:32.576695 12987 net.cpp:157] Top shape: 32 256 14 14 (1605632)
I0111 18:29:32.576700 12987 net.cpp:165] Memory required for data: 5690360320
I0111 18:29:32.576707 12987 layer_factory.hpp:77] Creating layer res4a_branch2a_relu
I0111 18:29:32.576714 12987 net.cpp:100] Creating Layer res4a_branch2a_relu
I0111 18:29:32.576727 12987 net.cpp:434] res4a_branch2a_relu <- res4a_branch2a
I0111 18:29:32.576733 12987 net.cpp:395] res4a_branch2a_relu -> res4a_branch2a (in-place)
I0111 18:29:32.577008 12987 net.cpp:150] Setting up res4a_branch2a_relu
I0111 18:29:32.577023 12987 net.cpp:157] Top shape: 32 256 14 14 (1605632)
I0111 18:29:32.577026 12987 net.cpp:165] Memory required for data: 5696782848
I0111 18:29:32.577030 12987 layer_factory.hpp:77] Creating layer res4a_branch2b
I0111 18:29:32.577059 12987 net.cpp:100] Creating Layer res4a_branch2b
I0111 18:29:32.577066 12987 net.cpp:434] res4a_branch2b <- res4a_branch2a
I0111 18:29:32.577076 12987 net.cpp:408] res4a_branch2b -> res4a_branch2b
I0111 18:29:32.590011 12987 net.cpp:150] Setting up res4a_branch2b
I0111 18:29:32.590039 12987 net.cpp:157] Top shape: 32 256 14 14 (1605632)
I0111 18:29:32.590044 12987 net.cpp:165] Memory required for data: 5703205376
I0111 18:29:32.590052 12987 layer_factory.hpp:77] Creating layer bn4a_branch2b
I0111 18:29:32.590064 12987 net.cpp:100] Creating Layer bn4a_branch2b
I0111 18:29:32.590068 12987 net.cpp:434] bn4a_branch2b <- res4a_branch2b
I0111 18:29:32.590085 12987 net.cpp:395] bn4a_branch2b -> res4a_branch2b (in-place)
I0111 18:29:32.590399 12987 net.cpp:150] Setting up bn4a_branch2b
I0111 18:29:32.590410 12987 net.cpp:157] Top shape: 32 256 14 14 (1605632)
I0111 18:29:32.590415 12987 net.cpp:165] Memory required for data: 5709627904
I0111 18:29:32.590423 12987 layer_factory.hpp:77] Creating layer scale4a_branch2b
I0111 18:29:32.590431 12987 net.cpp:100] Creating Layer scale4a_branch2b
I0111 18:29:32.590438 12987 net.cpp:434] scale4a_branch2b <- res4a_branch2b
I0111 18:29:32.590446 12987 net.cpp:395] scale4a_branch2b -> res4a_branch2b (in-place)
I0111 18:29:32.590509 12987 layer_factory.hpp:77] Creating layer scale4a_branch2b
I0111 18:29:32.590685 12987 net.cpp:150] Setting up scale4a_branch2b
I0111 18:29:32.590698 12987 net.cpp:157] Top shape: 32 256 14 14 (1605632)
I0111 18:29:32.590703 12987 net.cpp:165] Memory required for data: 5716050432
I0111 18:29:32.590709 12987 layer_factory.hpp:77] Creating layer res4a_branch2b_relu
I0111 18:29:32.590716 12987 net.cpp:100] Creating Layer res4a_branch2b_relu
I0111 18:29:32.590720 12987 net.cpp:434] res4a_branch2b_relu <- res4a_branch2b
I0111 18:29:32.590725 12987 net.cpp:395] res4a_branch2b_relu -> res4a_branch2b (in-place)
I0111 18:29:32.591930 12987 net.cpp:150] Setting up res4a_branch2b_relu
I0111 18:29:32.591949 12987 net.cpp:157] Top shape: 32 256 14 14 (1605632)
I0111 18:29:32.591954 12987 net.cpp:165] Memory required for data: 5722472960
I0111 18:29:32.591958 12987 layer_factory.hpp:77] Creating layer res4a_branch2c
I0111 18:29:32.591986 12987 net.cpp:100] Creating Layer res4a_branch2c
I0111 18:29:32.591996 12987 net.cpp:434] res4a_branch2c <- res4a_branch2b
I0111 18:29:32.592005 12987 net.cpp:408] res4a_branch2c -> res4a_branch2c
I0111 18:29:32.599773 12987 net.cpp:150] Setting up res4a_branch2c
I0111 18:29:32.599794 12987 net.cpp:157] Top shape: 32 1024 14 14 (6422528)
I0111 18:29:32.599799 12987 net.cpp:165] Memory required for data: 5748163072
I0111 18:29:32.599807 12987 layer_factory.hpp:77] Creating layer bn4a_branch2c
I0111 18:29:32.599820 12987 net.cpp:100] Creating Layer bn4a_branch2c
I0111 18:29:32.599828 12987 net.cpp:434] bn4a_branch2c <- res4a_branch2c
I0111 18:29:32.599836 12987 net.cpp:395] bn4a_branch2c -> res4a_branch2c (in-place)
I0111 18:29:32.600136 12987 net.cpp:150] Setting up bn4a_branch2c
I0111 18:29:32.600147 12987 net.cpp:157] Top shape: 32 1024 14 14 (6422528)
I0111 18:29:32.600150 12987 net.cpp:165] Memory required for data: 5773853184
I0111 18:29:32.600159 12987 layer_factory.hpp:77] Creating layer scale4a_branch2c
I0111 18:29:32.600167 12987 net.cpp:100] Creating Layer scale4a_branch2c
I0111 18:29:32.600172 12987 net.cpp:434] scale4a_branch2c <- res4a_branch2c
I0111 18:29:32.600183 12987 net.cpp:395] scale4a_branch2c -> res4a_branch2c (in-place)
I0111 18:29:32.600239 12987 layer_factory.hpp:77] Creating layer scale4a_branch2c
I0111 18:29:32.600424 12987 net.cpp:150] Setting up scale4a_branch2c
I0111 18:29:32.600445 12987 net.cpp:157] Top shape: 32 1024 14 14 (6422528)
I0111 18:29:32.600450 12987 net.cpp:165] Memory required for data: 5799543296
I0111 18:29:32.600456 12987 layer_factory.hpp:77] Creating layer res4a
I0111 18:29:32.600463 12987 net.cpp:100] Creating Layer res4a
I0111 18:29:32.600467 12987 net.cpp:434] res4a <- res4a_branch1
I0111 18:29:32.600472 12987 net.cpp:434] res4a <- res4a_branch2c
I0111 18:29:32.600477 12987 net.cpp:408] res4a -> res4a
I0111 18:29:32.600517 12987 net.cpp:150] Setting up res4a
I0111 18:29:32.600528 12987 net.cpp:157] Top shape: 32 1024 14 14 (6422528)
I0111 18:29:32.600530 12987 net.cpp:165] Memory required for data: 5825233408
I0111 18:29:32.600534 12987 layer_factory.hpp:77] Creating layer res4a_relu
I0111 18:29:32.600550 12987 net.cpp:100] Creating Layer res4a_relu
I0111 18:29:32.600558 12987 net.cpp:434] res4a_relu <- res4a
I0111 18:29:32.600564 12987 net.cpp:395] res4a_relu -> res4a (in-place)
I0111 18:29:32.600819 12987 net.cpp:150] Setting up res4a_relu
I0111 18:29:32.600836 12987 net.cpp:157] Top shape: 32 1024 14 14 (6422528)
I0111 18:29:32.600839 12987 net.cpp:165] Memory required for data: 5850923520
I0111 18:29:32.600843 12987 layer_factory.hpp:77] Creating layer res4a_res4a_relu_0_split
I0111 18:29:32.600879 12987 net.cpp:100] Creating Layer res4a_res4a_relu_0_split
I0111 18:29:32.600886 12987 net.cpp:434] res4a_res4a_relu_0_split <- res4a
I0111 18:29:32.600893 12987 net.cpp:408] res4a_res4a_relu_0_split -> res4a_res4a_relu_0_split_0
I0111 18:29:32.600903 12987 net.cpp:408] res4a_res4a_relu_0_split -> res4a_res4a_relu_0_split_1
I0111 18:29:32.600967 12987 net.cpp:150] Setting up res4a_res4a_relu_0_split
I0111 18:29:32.600978 12987 net.cpp:157] Top shape: 32 1024 14 14 (6422528)
I0111 18:29:32.600983 12987 net.cpp:157] Top shape: 32 1024 14 14 (6422528)
I0111 18:29:32.600986 12987 net.cpp:165] Memory required for data: 5902303744
I0111 18:29:32.600991 12987 layer_factory.hpp:77] Creating layer res4b_branch2a
I0111 18:29:32.601003 12987 net.cpp:100] Creating Layer res4b_branch2a
I0111 18:29:32.601011 12987 net.cpp:434] res4b_branch2a <- res4a_res4a_relu_0_split_0
I0111 18:29:32.601017 12987 net.cpp:408] res4b_branch2a -> res4b_branch2a
I0111 18:29:32.608491 12987 net.cpp:150] Setting up res4b_branch2a
I0111 18:29:32.608515 12987 net.cpp:157] Top shape: 32 256 14 14 (1605632)
I0111 18:29:32.608522 12987 net.cpp:165] Memory required for data: 5908726272
I0111 18:29:32.608530 12987 layer_factory.hpp:77] Creating layer bn4b_branch2a
I0111 18:29:32.608537 12987 net.cpp:100] Creating Layer bn4b_branch2a
I0111 18:29:32.608541 12987 net.cpp:434] bn4b_branch2a <- res4b_branch2a
I0111 18:29:32.608551 12987 net.cpp:395] bn4b_branch2a -> res4b_branch2a (in-place)
I0111 18:29:32.608847 12987 net.cpp:150] Setting up bn4b_branch2a
I0111 18:29:32.608858 12987 net.cpp:157] Top shape: 32 256 14 14 (1605632)
I0111 18:29:32.608862 12987 net.cpp:165] Memory required for data: 5915148800
I0111 18:29:32.608878 12987 layer_factory.hpp:77] Creating layer scale4b_branch2a
I0111 18:29:32.608888 12987 net.cpp:100] Creating Layer scale4b_branch2a
I0111 18:29:32.608892 12987 net.cpp:434] scale4b_branch2a <- res4b_branch2a
I0111 18:29:32.608898 12987 net.cpp:395] scale4b_branch2a -> res4b_branch2a (in-place)
I0111 18:29:32.608963 12987 layer_factory.hpp:77] Creating layer scale4b_branch2a
I0111 18:29:32.609127 12987 net.cpp:150] Setting up scale4b_branch2a
I0111 18:29:32.609138 12987 net.cpp:157] Top shape: 32 256 14 14 (1605632)
I0111 18:29:32.609141 12987 net.cpp:165] Memory required for data: 5921571328
I0111 18:29:32.609148 12987 layer_factory.hpp:77] Creating layer res4b_branch2a_relu
I0111 18:29:32.609153 12987 net.cpp:100] Creating Layer res4b_branch2a_relu
I0111 18:29:32.609158 12987 net.cpp:434] res4b_branch2a_relu <- res4b_branch2a
I0111 18:29:32.609164 12987 net.cpp:395] res4b_branch2a_relu -> res4b_branch2a (in-place)
I0111 18:29:32.609413 12987 net.cpp:150] Setting up res4b_branch2a_relu
I0111 18:29:32.609428 12987 net.cpp:157] Top shape: 32 256 14 14 (1605632)
I0111 18:29:32.609441 12987 net.cpp:165] Memory required for data: 5927993856
I0111 18:29:32.609446 12987 layer_factory.hpp:77] Creating layer res4b_branch2b
I0111 18:29:32.609457 12987 net.cpp:100] Creating Layer res4b_branch2b
I0111 18:29:32.609464 12987 net.cpp:434] res4b_branch2b <- res4b_branch2a
I0111 18:29:32.609472 12987 net.cpp:408] res4b_branch2b -> res4b_branch2b
I0111 18:29:32.621441 12987 net.cpp:150] Setting up res4b_branch2b
I0111 18:29:32.621462 12987 net.cpp:157] Top shape: 32 256 14 14 (1605632)
I0111 18:29:32.621466 12987 net.cpp:165] Memory required for data: 5934416384
I0111 18:29:32.621474 12987 layer_factory.hpp:77] Creating layer bn4b_branch2b
I0111 18:29:32.621481 12987 net.cpp:100] Creating Layer bn4b_branch2b
I0111 18:29:32.621485 12987 net.cpp:434] bn4b_branch2b <- res4b_branch2b
I0111 18:29:32.621491 12987 net.cpp:395] bn4b_branch2b -> res4b_branch2b (in-place)
I0111 18:29:32.621767 12987 net.cpp:150] Setting up bn4b_branch2b
I0111 18:29:32.621778 12987 net.cpp:157] Top shape: 32 256 14 14 (1605632)
I0111 18:29:32.621783 12987 net.cpp:165] Memory required for data: 5940838912
I0111 18:29:32.621798 12987 layer_factory.hpp:77] Creating layer scale4b_branch2b
I0111 18:29:32.621809 12987 net.cpp:100] Creating Layer scale4b_branch2b
I0111 18:29:32.621814 12987 net.cpp:434] scale4b_branch2b <- res4b_branch2b
I0111 18:29:32.621824 12987 net.cpp:395] scale4b_branch2b -> res4b_branch2b (in-place)
I0111 18:29:32.621886 12987 layer_factory.hpp:77] Creating layer scale4b_branch2b
I0111 18:29:32.622045 12987 net.cpp:150] Setting up scale4b_branch2b
I0111 18:29:32.622056 12987 net.cpp:157] Top shape: 32 256 14 14 (1605632)
I0111 18:29:32.622059 12987 net.cpp:165] Memory required for data: 5947261440
I0111 18:29:32.622066 12987 layer_factory.hpp:77] Creating layer res4b_branch2b_relu
I0111 18:29:32.622071 12987 net.cpp:100] Creating Layer res4b_branch2b_relu
I0111 18:29:32.622076 12987 net.cpp:434] res4b_branch2b_relu <- res4b_branch2b
I0111 18:29:32.622082 12987 net.cpp:395] res4b_branch2b_relu -> res4b_branch2b (in-place)
I0111 18:29:32.623178 12987 net.cpp:150] Setting up res4b_branch2b_relu
I0111 18:29:32.623195 12987 net.cpp:157] Top shape: 32 256 14 14 (1605632)
I0111 18:29:32.623199 12987 net.cpp:165] Memory required for data: 5953683968
I0111 18:29:32.623203 12987 layer_factory.hpp:77] Creating layer res4b_branch2c
I0111 18:29:32.623216 12987 net.cpp:100] Creating Layer res4b_branch2c
I0111 18:29:32.623222 12987 net.cpp:434] res4b_branch2c <- res4b_branch2b
I0111 18:29:32.623231 12987 net.cpp:408] res4b_branch2c -> res4b_branch2c
I0111 18:29:32.630095 12987 net.cpp:150] Setting up res4b_branch2c
I0111 18:29:32.630116 12987 net.cpp:157] Top shape: 32 1024 14 14 (6422528)
I0111 18:29:32.630120 12987 net.cpp:165] Memory required for data: 5979374080
I0111 18:29:32.630126 12987 layer_factory.hpp:77] Creating layer bn4b_branch2c
I0111 18:29:32.630134 12987 net.cpp:100] Creating Layer bn4b_branch2c
I0111 18:29:32.630138 12987 net.cpp:434] bn4b_branch2c <- res4b_branch2c
I0111 18:29:32.630143 12987 net.cpp:395] bn4b_branch2c -> res4b_branch2c (in-place)
I0111 18:29:32.630429 12987 net.cpp:150] Setting up bn4b_branch2c
I0111 18:29:32.630441 12987 net.cpp:157] Top shape: 32 1024 14 14 (6422528)
I0111 18:29:32.630445 12987 net.cpp:165] Memory required for data: 6005064192
I0111 18:29:32.630452 12987 layer_factory.hpp:77] Creating layer scale4b_branch2c
I0111 18:29:32.630460 12987 net.cpp:100] Creating Layer scale4b_branch2c
I0111 18:29:32.630463 12987 net.cpp:434] scale4b_branch2c <- res4b_branch2c
I0111 18:29:32.630468 12987 net.cpp:395] scale4b_branch2c -> res4b_branch2c (in-place)
I0111 18:29:32.630525 12987 layer_factory.hpp:77] Creating layer scale4b_branch2c
I0111 18:29:32.630691 12987 net.cpp:150] Setting up scale4b_branch2c
I0111 18:29:32.630702 12987 net.cpp:157] Top shape: 32 1024 14 14 (6422528)
I0111 18:29:32.630704 12987 net.cpp:165] Memory required for data: 6030754304
I0111 18:29:32.630710 12987 layer_factory.hpp:77] Creating layer res4b
I0111 18:29:32.630718 12987 net.cpp:100] Creating Layer res4b
I0111 18:29:32.630731 12987 net.cpp:434] res4b <- res4a_res4a_relu_0_split_1
I0111 18:29:32.630736 12987 net.cpp:434] res4b <- res4b_branch2c
I0111 18:29:32.630743 12987 net.cpp:408] res4b -> res4b
I0111 18:29:32.630779 12987 net.cpp:150] Setting up res4b
I0111 18:29:32.630789 12987 net.cpp:157] Top shape: 32 1024 14 14 (6422528)
I0111 18:29:32.630791 12987 net.cpp:165] Memory required for data: 6056444416
I0111 18:29:32.630803 12987 layer_factory.hpp:77] Creating layer res4b_relu
I0111 18:29:32.630811 12987 net.cpp:100] Creating Layer res4b_relu
I0111 18:29:32.630815 12987 net.cpp:434] res4b_relu <- res4b
I0111 18:29:32.630820 12987 net.cpp:395] res4b_relu -> res4b (in-place)
I0111 18:29:32.631048 12987 net.cpp:150] Setting up res4b_relu
I0111 18:29:32.631062 12987 net.cpp:157] Top shape: 32 1024 14 14 (6422528)
I0111 18:29:32.631065 12987 net.cpp:165] Memory required for data: 6082134528
I0111 18:29:32.631070 12987 layer_factory.hpp:77] Creating layer res4c_branch2a
I0111 18:29:32.631083 12987 net.cpp:100] Creating Layer res4c_branch2a
I0111 18:29:32.631089 12987 net.cpp:434] res4c_branch2a <- res4b
I0111 18:29:32.631096 12987 net.cpp:408] res4c_branch2a -> res4c_branch2a
I0111 18:29:32.637892 12987 net.cpp:150] Setting up res4c_branch2a
I0111 18:29:32.637912 12987 net.cpp:157] Top shape: 32 256 14 14 (1605632)
I0111 18:29:32.637920 12987 net.cpp:165] Memory required for data: 6088557056
I0111 18:29:32.637926 12987 layer_factory.hpp:77] Creating layer bn4c_branch2a
I0111 18:29:32.637936 12987 net.cpp:100] Creating Layer bn4c_branch2a
I0111 18:29:32.637943 12987 net.cpp:434] bn4c_branch2a <- res4c_branch2a
I0111 18:29:32.637951 12987 net.cpp:395] bn4c_branch2a -> res4c_branch2a (in-place)
I0111 18:29:32.638231 12987 net.cpp:150] Setting up bn4c_branch2a
I0111 18:29:32.638240 12987 net.cpp:157] Top shape: 32 256 14 14 (1605632)
I0111 18:29:32.638243 12987 net.cpp:165] Memory required for data: 6094979584
I0111 18:29:32.638252 12987 layer_factory.hpp:77] Creating layer scale4c_branch2a
I0111 18:29:32.638259 12987 net.cpp:100] Creating Layer scale4c_branch2a
I0111 18:29:32.638263 12987 net.cpp:434] scale4c_branch2a <- res4c_branch2a
I0111 18:29:32.638272 12987 net.cpp:395] scale4c_branch2a -> res4c_branch2a (in-place)
I0111 18:29:32.638329 12987 layer_factory.hpp:77] Creating layer scale4c_branch2a
I0111 18:29:32.638481 12987 net.cpp:150] Setting up scale4c_branch2a
I0111 18:29:32.638494 12987 net.cpp:157] Top shape: 32 256 14 14 (1605632)
I0111 18:29:32.638496 12987 net.cpp:165] Memory required for data: 6101402112
I0111 18:29:32.638502 12987 layer_factory.hpp:77] Creating layer res4c_branch2a_relu
I0111 18:29:32.638509 12987 net.cpp:100] Creating Layer res4c_branch2a_relu
I0111 18:29:32.638511 12987 net.cpp:434] res4c_branch2a_relu <- res4c_branch2a
I0111 18:29:32.638516 12987 net.cpp:395] res4c_branch2a_relu -> res4c_branch2a (in-place)
I0111 18:29:32.638746 12987 net.cpp:150] Setting up res4c_branch2a_relu
I0111 18:29:32.638761 12987 net.cpp:157] Top shape: 32 256 14 14 (1605632)
I0111 18:29:32.638763 12987 net.cpp:165] Memory required for data: 6107824640
I0111 18:29:32.638767 12987 layer_factory.hpp:77] Creating layer pool5
I0111 18:29:32.638775 12987 net.cpp:100] Creating Layer pool5
I0111 18:29:32.638779 12987 net.cpp:434] pool5 <- res4c_branch2a
I0111 18:29:32.638788 12987 net.cpp:408] pool5 -> pool5
I0111 18:29:32.639906 12987 net.cpp:150] Setting up pool5
I0111 18:29:32.639925 12987 net.cpp:157] Top shape: 32 256 8 8 (524288)
I0111 18:29:32.639928 12987 net.cpp:165] Memory required for data: 6109921792
I0111 18:29:32.639932 12987 layer_factory.hpp:77] Creating layer fc1000
I0111 18:29:32.639945 12987 net.cpp:100] Creating Layer fc1000
I0111 18:29:32.639951 12987 net.cpp:434] fc1000 <- pool5
I0111 18:29:32.639961 12987 net.cpp:408] fc1000 -> fc1000
I0111 18:29:32.873741 12987 net.cpp:150] Setting up fc1000
I0111 18:29:32.873767 12987 net.cpp:157] Top shape: 32 1000 (32000)
I0111 18:29:32.873771 12987 net.cpp:165] Memory required for data: 6110049792
I0111 18:29:32.873780 12987 layer_factory.hpp:77] Creating layer fc1000_fc1000_0_split
I0111 18:29:32.873805 12987 net.cpp:100] Creating Layer fc1000_fc1000_0_split
I0111 18:29:32.873814 12987 net.cpp:434] fc1000_fc1000_0_split <- fc1000
I0111 18:29:32.873823 12987 net.cpp:408] fc1000_fc1000_0_split -> fc1000_fc1000_0_split_0
I0111 18:29:32.873832 12987 net.cpp:408] fc1000_fc1000_0_split -> fc1000_fc1000_0_split_1
I0111 18:29:32.873842 12987 net.cpp:408] fc1000_fc1000_0_split -> fc1000_fc1000_0_split_2
I0111 18:29:32.873924 12987 net.cpp:150] Setting up fc1000_fc1000_0_split
I0111 18:29:32.873932 12987 net.cpp:157] Top shape: 32 1000 (32000)
I0111 18:29:32.873936 12987 net.cpp:157] Top shape: 32 1000 (32000)
I0111 18:29:32.873940 12987 net.cpp:157] Top shape: 32 1000 (32000)
I0111 18:29:32.873944 12987 net.cpp:165] Memory required for data: 6110433792
I0111 18:29:32.873946 12987 layer_factory.hpp:77] Creating layer prob
I0111 18:29:32.873960 12987 net.cpp:100] Creating Layer prob
I0111 18:29:32.873968 12987 net.cpp:434] prob <- fc1000_fc1000_0_split_0
I0111 18:29:32.873973 12987 net.cpp:434] prob <- label_resnet_32_1_split_0
I0111 18:29:32.873980 12987 net.cpp:408] prob -> prob
…
